data/saved_models/id-3/last_checkpoint/checkpt.tar (torch_old, 129135 bytes, 51 tensors)

ode_f.f.0.weight f4 [50, 13]
000000 14 5f 29 bd f9 68 5c bd 8b 70 5c bd c2 c0 58 bd
       -0.04135044 -0.053811047 -0.053818267 -0.052918203
000010 d0 9f 27 3c 72 7d 5a bd 77 59 96 3b f4 34 5a bd
       0.010230973 -0.05334229 0.0045883018 -0.053273156
000020 64 01 59 bd f8 90 bd bc 59 78 58 bd 86 c2 a3 3c
       -0.05297984 -0.023140416 -0.052849147 0.019990217
000030 36 5a 82 38 21 e8 2b bd f4 28 5f bd 13 30 5f bd
       6.215686e-05 -0.041969422 -0.054482415 -0.054489207
000040 08 7e 5b bd e0 3f 38 3c 0c 3c 5d bd e8 d7 8a 3b
       -0.05358699 0.011245698 -0.054012343 0.004237164
000050 9d f1 5c bd c4 bf 5b bd 7d 5b c1 bc b3 35 5b bd
       -0.053941358 -0.05364968 -0.023603195 -0.05351801
000060 ea 34 a6 3c 84 35 98 b9 dd a2 21 3d e9 e2 52 3d
       0.020288903 -0.00029031571 0.03946196 0.05148593
000070 e4 e9 52 3d 7a 5a 4f 3d 4d 60 26 bc cc 07 51 3d
       0.051492587 0.050623395 -0.010154796 0.051032826
000080 58 d5 9a bb db c1 50 3d 1f 99 4f 3d 60 d3 b3 3c
       -0.0047251396 0.050966125 0.050683137 0.021951377
000090 a4 14 4f 3d 42 77 9f bc 3a df a3 38 93 6a 28 3d
       0.050556794 -0.019466046 7.814025e-05 0.041117262
0000a0 80 cb 5a 3d af d2 5a 3d 7d 30 57 3d 26 00 2c bc
       0.05341673 0.05342358 0.052536476 -0.010498082
0000b0 54 e7 58 3d 3d bd 85 bb 45 9e 58 3d b3 70 57 3d
       0.052954987 -0.004081397 0.052885313 0.052597713
0000c0 14 27 bd 3c f4 e8 56 3d 38 fd a0 bc 16 23 ab 39
       0.023089923 0.052468255 -0.019651994 0.00032641803
0000d0 d4 d5 27 bd d6 56 5a bd 09 5e 5a bd bb b8 56 bd
       -0.040975407 -0.05330547 -0.053312335 -0.052422266
0000e0 8c a1 26 3c 09 70 58 bd 8d 19 90 3b e4 27 58 bd
       0.010170352 -0.05284122 0.004397577 -0.052772418
0000f0 ce f8 56 bd f6 27 bc bc fd 70 56 bd 2e ee a2 3c
       -0.052483372 -0.022968274 -0.052353848 0.019888964
000100 11 ee 7e b8 3d 25 2c 3d 0d eb 5f 3d 35 f2 5f 3d
       -6.0780036e-05 0.0420277 0.05466752 0.054674346
000110 79 35 5c 3d db 9c 27 bc 62 f8 5d 3d 77 56 8e bb
       0.053761933 -0.010230268 0.054191954 -0.0043438035
000120 82 ae 5d 3d 44 77 5c 3d 80 f3 c0 3c ed eb 5b 3d
       0.0541215 0.053824678 0.02355361 0.053691793
000130 16 b0 a2 bc c6 f1 46 39 e5 c1 2a 3d 7f 58 5e 3d
       -0.019859355 0.00018972819 0.04168882 0.054283615
000140 03 60 5e 3d 78 a6 5a 3d a8 05 2a bc 31 68 5c 3d
       0.054290783 0.053381413 -0.010377325 0.053810302
000150 1c 0d 98 bb 93 1e 5c 3d e2 e7 5a 3d 75 c6 be 3c
       -0.0046402346 0.053740095 0.053443797 0.023287991
000160 61 5d 5a 3d 0d 16 a2 bc f2 a9 8d 38 ab c7 2b bd
       0.05331171 -0.019785905 6.755059e-05 -0.041938465
000170 f2 c4 5e bd b2 cc 5e bd 8c 1e 5b bd 38 48 2a 3c
       -0.05438704 -0.05439443 -0.05349593 0.010393195
000180 cc da 5c bd 34 bc 80 3b d9 90 5c bd 81 5f 5b bd
       -0.0539196 0.0039286856 -0.053849075 -0.053557876
000190 e4 3f c2 bc 5e d6 5a bd 3e a0 a2 3c 3a 13 be b9
       -0.023712106 -0.053427093 0.0198518 -0.0003625395
0001a0 0e c4 26 3d 27 02 59 3d 0b 09 59 3d 2b 68 55 3d
       0.040714316 0.05298057 0.05298714 0.052101295
0001b0 a5 f2 29 bc a2 1d 57 3d 28 9d 99 bb 09 d6 56 3d
       -0.010372792 0.052518494 -0.004687924 0.052450214
0001c0 9e a7 55 3d 35 ce ba 3c 03 21 55 3d 18 c9 a2 bc
       0.052161805 0.022803405 0.052033436 -0.01987128
0001d0 09 56 ce 38 74 11 2a 3d 02 50 5d 3d bf 57 5d 3d
       9.838871e-05 0.04152055 0.05403138 0.05403876
0001e0 7b a4 59 3d e1 bb 2c bc ec 62 5b 3d 15 86 94 bb
       0.053135376 -0.010542841 0.053561136 -0.0045325854
0001f0 73 19 5b 3d 74 e5 59 3d 85 51 be 3c b9 5b 59 3d
       0.053491067 0.05319734 0.02323223 0.05306599
000200 6e ad a3 bc 11 d8 0f 39 62 88 26 3d 16 1e 59 3d
       -0.019980159 0.00013718034 0.04065741 0.053007208
000210 d1 25 59 3d 81 7e 55 3d 37 27 2d bc fb 36 57 3d
       0.05301458 0.052122597 -0.010568432 0.052542668
000220 98 5d 9d bb 20 ef 56 3d d7 be 55 3d b0 41 b9 3c
       -0.004802417 0.05247414 0.052183952 0.02261433
000230 12 37 55 3d 8c 0e a3 bc 56 5a 49 38 3a a2 28 3d
       0.052054472 -0.019904397 4.8006266e-05 0.041170336
000240 6a 17 5c 3d 85 1f 5c 3d 1f 68 58 3d ea 7e 32 bc
       0.053733267 0.053740997 0.052833673 -0.0108945165
000250 25 29 5a 3d 70 07 a2 bb 6e de 59 3d 34 aa 58 3d
       0.053261895 -0.0049447343 0.05319064 0.052896693
000260 19 6b ba 3c bd 1f 58 3d cd 3f a6 bc be 1c ff 37
       0.022756146 0.052764643 -0.020294094 3.0411753e-05
000270 a5 61 26 3d d1 dc 58 3d 24 e4 58 3d 65 3e 55 3d
       0.040620465 0.052944962 0.052951947 0.052061457
000280 d1 7a 2f bc cb f5 56 3d 64 99 9e bb 6e ae 56 3d
       -0.010710434 0.0524805 -0.004840063 0.052412443
000290 54 7e 55 3d 49 5e b9 3c 30 f7 54 3d c4 7b a2 bc
       0.05212243 0.022627966 0.05199355 -0.019834407
0002a0 4d f9 df 38 7e d1 2a 3d 32 16 5e 3d 23 1d 5e 3d
       0.000106799045 0.041703694 0.054220386 0.054227006
0002b0 f4 6a 5a 3d c8 d0 35 bc d1 28 5c 3d 96 64 97 bb
       0.053324655 -0.011097141 0.053749863 -0.004620145
0002c0 9b df 5b 3d e7 ab 5a 3d b3 3d bf 3c d0 21 5a 3d
       0.053680044 0.053386595 0.02334485 0.053254902
0002d0 98 7f a4 bc 83 9b ad 39 64 ce 2a bd 12 19 5e bd
       -0.020080373 0.00033112997 -0.041700736 -0.054223128
0002e0 51 20 5e bd a9 6d 5a bd ec c4 36 3c d6 2b 5c bd
       -0.054230038 -0.053327236 0.011155348 -0.053752743
0002f0 68 bd 97 3b c3 e1 5b bd 99 ae 5a bd 1a 06 bf bc
       0.0046307333 -0.0536821 -0.053389166 -0.02331834
000300 46 25 5a bd 3b 4d a5 3c a7 95 95 b9 84 5b 2a bd
       -0.053258203 0.020178428 -0.00028530994 -0.041591182
000310 21 a4 5d bd 36 ab 5d bd 1a f8 59 bd 57 46 35 3c
       -0.054111604 -0.054118358 -0.053215124 0.011064134
000320 97 b5 5b bd f9 5e aa 3b ed 6d 5b bd 2d 38 5a bd
       -0.053639974 0.00519931 -0.05357163 -0.05327623
000330 7b c2 be bc 1f af 59 bd 32 f8 a6 3c cc a6 67 38
       -0.023286095 -0.053145524 0.02038202 5.5230033e-05
000340 1f a6 2a bd 52 ef 5d bd 1f f7 5d bd ae 42 5a bd
       -0.04166233 -0.05418331 -0.05419075 -0.053286247
000350 91 4a 20 3c 70 01 5c bd 9f fc 90 3b 77 b8 5b bd
       0.009783403 -0.05371231 0.004424646 -0.053642716
000360 8e 83 5a bd 94 60 bf bc 55 fa 59 bd 6e 67 a1 3c
       -0.053348117 -0.023361482 -0.05321725 0.01970264
000370 3d 76 2f b9 15 40 2c bd 35 f7 5f bd 83 fe 5f bd
       -0.00016733348 -0.0420533 -0.054679114 -0.05468608
000380 7e 43 5c bd da 65 32 3c 2c 06 5e bd 2a d9 92 3b
       -0.053775303 0.010888541 -0.054205105 0.0044814544
000390 59 bb 5d bd c3 85 5c bd 1e c8 c0 bc b4 fa 5b bd
       -0.054133747 -0.053838503 -0.023532923 -0.053705886
0003a0 a4 3e a3 3c c8 96 bb b9 34 e3 29 bd 58 e3 5c bd
       0.01992733 -0.0003577976 -0.041476443 -0.05392775
0003b0 41 ea 5c bd 83 3b 59 bd f6 14 29 3c aa f7 5a bd
       -0.05393434 -0.05303527 0.010319939 -0.053458847
0003c0 a1 61 8d 3b ea ae 5a bd 46 7c 59 bd 80 cb be bc
       0.004314617 -0.053389467 -0.053097032 -0.023290396
0003d0 69 f3 58 bd b6 1a a2 3c 08 7a ad b9 f0 a4 26 bd
       -0.05296651 0.019788127 -0.00033088052 -0.04068464
0003e0 05 9a 59 bd 57 a1 59 bd 13 f3 55 bd 53 0f 2d 3c
       -0.0531254 -0.05313238 -0.052233767 0.010562736
0003f0 62 af 57 bd 3a c5 a1 3b 28 66 57 bd 6d 33 56 bd
       -0.052657492 0.0049368413 -0.05258766 -0.052295137

ode_f.f.0.bias f4 [50]
000000 2e e2 7e bd 96 d7 80 bd b9 39 74 3d db be 7c 3d
       -0.06222742 -0.0629112 0.05962536 0.06170545
000010 8a 70 7c bd 37 6d 81 3d 88 90 80 3d 1c 93 80 bd
       -0.061630763 0.06319659 0.06277567 -0.06278059
000020 b4 fb 7a 3d 8b df 7f 3d 23 45 7b 3d 73 bb 7e 3d
       0.0612752 0.062469047 0.06134523 0.062190484
000030 ca fa 7a 3d 92 52 80 3d 39 51 80 bd 18 2a 80 bd
       0.061274327 0.06265749 -0.06265492 -0.06258029
000040 4e 48 80 bd db 61 81 bd 30 54 7f bd 40 f8 7b bd
       -0.06263791 -0.063174926 -0.062336147 -0.061516047
000050 cf 4c 77 bd 62 c6 7a 3d 5c eb 77 bd 10 c1 76 3d
       -0.060375985 0.06122435 -0.06052719 0.060242712
000060 06 cf 79 bd 00 2d 78 3d b6 06 7e 3d 3a 89 80 3d
       -0.06098845 0.06058979 0.06201812 0.06276174
000070 ec da 7a 3d 26 7f 7a 3d b3 d1 7e bd 1b 15 7c 3d
       0.061243936 0.061156414 -0.062211704 0.061543565
000080 cc e9 7d bd b7 a6 7f 3d a4 d5 74 3d 79 f7 80 bd
       -0.061990544 0.06241485 0.059774056 -0.06297202
000090 f4 f9 7a bd ad cd 7d bd 7d f1 7e 3d 4e 98 81 3d
       -0.06127353 -0.061963726 0.06224202 0.06327878
0000a0 db 79 7c bd 09 92 7d bd c1 d3 81 bd c0 cc 7e bd
       -0.061639648 -0.061906848 -0.06339217 -0.062206984
0000b0 0e 26 7d bd e7 ed 7d 3d b6 26 80 bd 83 0c 7b 3d
       -0.06180387 0.06199446 -0.062573835 0.06129123
0000c0 33 ff 81 bd 70 3d 7a bd
       -0.063475035 -0.061093748

ode_f.f.3.weight f4 [50, 50]
000000 16 83 ca 3c 71 80 ce 3c 15 33 c1 bc 62 35 c9 bc
       0.02472071 0.02520773 -0.023583928 -0.024561588
000010 13 96 c9 3c e7 ea cd bc 98 e7 cc bc d5 7b ce 3c
       0.024607694 -0.025136424 -0.025012776 0.025205532
000020 64 cd c6 bc c2 f3 cb bc 86 60 c7 bc 51 06 c9 bc
       -0.02426786 -0.024896506 -0.024338018 -0.024539145
000030 ee eb c8 bc ec 28 ce bc 81 a0 cd 3c 53 fc cb 3c
       -0.024526563 -0.025165997 0.025100948 0.024900591
000040 eb d5 cb 3c e9 bf ce 3c e8 da cb 3c 99 f5 c6 3c
       0.024882277 0.025237994 0.024884656 0.024287032
000050 bd 98 c6 3c e7 ae c7 bc 98 2d c6 3c 6d 7e c6 bc
       0.024242753 -0.024375392 0.024191663 -0.024230206
000060 cc 52 c7 3c 0a 04 c5 bc 15 55 ca bc 06 2c cd bc
       0.024331473 -0.024049778 -0.024698773 -0.025045406
000070 25 16 c7 bc db 56 c5 bc 23 bf cb 3c 66 bc c8 bc
       -0.024302552 -0.024089267 0.024871415 -0.024503898
000080 5b e2 ca 3c a9 4c cc bc 68 7d c2 bc 90 81 ce 3c
       0.024766138 -0.024938898 -0.023741439 0.025208265
000090 9d 5b c7 3c 9c e9 c9 3c 82 5b cb bc b8 fb ce bc
       0.024335677 0.024647526 -0.024823908 -0.025266513
0000a0 3a a7 c8 3c e8 d3 cb 3c 12 9a cf 3c 22 a8 ca 3c
       0.024493802 0.024881318 0.025342021 0.024738375
0000b0 b5 cd cb 3c 93 24 ca bc 8d 1b cf 3c e2 03 c7 bc
       0.024878362 -0.024675643 0.025281692 -0.024293844
0000c0 b6 ca d1 3c 5f 42 c8 3c 4d 93 c1 3c fb 2a c5 3c
       0.025609355 0.02444571 0.023629809 0.024068346
0000d0 fb 61 b9 bc 29 6e c0 bc 6c 1a bf 3c 46 a6 c4 bc
       -0.022629729 -0.023490028 0.023328029 -0.024005067
0000e0 10 fe c4 bc 55 16 c4 3c 4d 3a be bc d9 aa c2 bc
       -0.024046928 0.02393643 -0.02322116 -0.023763107
0000f0 a3 d2 bd bc 90 39 c0 bc 76 c5 bd bc a8 33 c4 bc
       -0.023171728 -0.023464948 -0.023165446 -0.023950413
000100 5c 9f c4 3c cb 22 c2 3c 59 64 c2 3c d7 4f c4 3c
       0.02400177 0.023698231 0.02372949 0.023963852
000110 85 1a c3 3c d0 b0 bd 3c d2 f3 bc 3c 20 2b bf bc
       0.023816356 0.0231556 0.023065481 -0.023335993
000120 23 25 bc 3c f5 c6 bc bc 49 a5 be 3c 00 f8 ba bc
       0.022966927 -0.023044089 0.023272173 -0.022823334
000130 f4 72 c1 bc ef 10 c4 bc bc 37 be bc d8 24 bb bc
       -0.023614384 -0.023933856 -0.023219936 -0.022844717
000140 e6 57 c2 3c 60 be bf bc c6 97 c1 3c 9a 42 c4 bc
       0.023723554 -0.023406208 0.023631942 -0.02395754
000150 67 3b b9 bc cd 93 c6 3c d7 18 be 3c 5b 09 c1 3c
       -0.022611333 0.024240399 0.023205204 0.023564031
000160 99 ab c1 bc e6 46 c6 bc 26 50 c0 3c d7 5f c2 3c
       -0.023641394 -0.024203729 0.023475718 0.02372734
000170 ef 93 c6 3c ae fb c1 3c 3c 49 c2 3c 86 3b bf bc
       0.024240462 0.02367958 0.023716561 -0.023343813
000180 53 f3 c5 3c 91 0b be bc d4 cb c8 3c 79 ad be 3c
       0.024163878 -0.023198875 0.024511255 0.023276078
000190 6b 47 c8 bc 39 3e cd bc 64 e8 bf 3c da e8 c7 3c
       -0.024448117 -0.025054084 0.023426242 0.024403024
0001a0 18 51 c7 bc 36 06 cb 3c 01 a3 ca 3c 1f e3 ca bc
       -0.02433066 0.024783235 0.02473593 -0.024766503
0001b0 cd 57 c6 3c 0b b4 c9 3c e2 08 c5 3c 62 4a c7 3c
       0.024211789 0.024621984 0.024052087 0.02432746
0001c0 45 51 c4 3c 91 f0 cb 3c 0d a5 c9 bc 16 90 ca bc
       0.023964534 0.024894984 -0.024614835 -0.024726909
0001d0 71 9e c9 bc 09 5d cd bc 6b a0 ca bc 83 e9 c4 bc
       -0.024611684 -0.025068777 -0.024734696 -0.024037128
0001e0 c4 0f c4 bc 39 71 c6 3c 9f 31 c4 bc 61 0a c4 3c
       -0.023933299 0.02422391 -0.023949442 0.02393073
0001f0 0c e9 c5 bc b3 3a c3 3c 42 2b c9 3c 31 85 ca 3c
       -0.024158977 0.0238317 0.02455676 0.024721714
000200 35 9b c5 3c 30 53 c2 3c 32 ae c8 bc 25 83 c5 3c
       0.02412186 0.023721308 -0.024497125 0.024110386
000210 f0 6b c8 bc fb 17 cb 3c 7b 0b c1 3c ca 99 cc bc
       -0.024465531 0.024791708 0.023565045 -0.024975676
000220 85 15 c5 bc e9 6f c7 bc 31 a8 c9 3c 1c 39 cc 3c
       -0.024058113 -0.024345355 0.024616333 0.024929576
000230 47 e3 c7 bc b8 42 c9 bc 71 5d ce bc 2f 77 c9 bc
       -0.024400366 -0.024567947 -0.02519104 -0.024592964
000240 02 11 c9 bc fc 39 c8 3c 06 b4 cd bc 07 f9 c4 3c
       -0.024544243 0.024441712 -0.025110256 0.024044527
000250 1e 54 d1 bc 28 b6 c4 bc 95 d7 c5 3c 9f 39 cb 3c
       -0.025552806 -0.02401264 0.02415065 0.02480775
000260 48 52 bd bc 75 09 c6 bc 1a 26 c3 3c c6 19 ca bc
       -0.023110524 -0.024174431 0.02382188 -0.024670493
000270 15 5d c8 bc 9a db ca 3c 7f c9 c3 bc 33 df c6 bc
       -0.024458447 0.024762917 -0.023899792 -0.024276352
000280 0d 9f c2 bc 68 c9 c4 bc 85 d3 c3 bc c3 5c c8 bc
       -0.023757482 -0.02402182 -0.023904571 -0.024458295
000290 16 c6 c8 3c 86 fe c8 3c 07 7b c8 3c dc 39 ca 3c
       0.024508517 0.024535429 0.024472727 0.024685793
0002a0 5e ea c5 3c 0f e2 c2 3c 23 98 bf 3c 5d a3 c3 bc
       0.024159607 0.023789434 0.023387974 -0.023881609
0002b0 ef 6a c1 3c 14 dd c0 bc c8 6e c3 3c 4e 6c bf bc
       0.02361056 -0.023542918 0.023856536 -0.023367073
0002c0 5f ef c5 bc 45 34 ca bc a8 08 c2 bc 60 26 c0 bc
       -0.024161993 -0.024683127 -0.023685768 -0.023455799
0002d0 72 af c5 3c c9 de c3 bc d1 82 c6 3c 4e 9a c7 bc
       0.02413151 -0.023909943 0.0242323 -0.02436557
0002e0 9c 40 be bc 21 b7 c8 3c b0 4f c2 3c 6d 19 c6 3c
       -0.023224168 0.024501385 0.023719639 0.024182046
0002f0 1d 4e c7 bc 1b d9 ca bc 91 de c4 3c 6e b9 c6 3c
       -0.02432924 -0.024761727 0.02403191 0.024258342
000300 bf d5 ca 3c 52 9f c4 3c 60 eb c5 3c 96 cf c4 bc
       0.024760125 0.024001751 0.024160087 -0.024024766
000310 dd e6 c9 3c 5c 89 c1 bc b4 69 cc 3c e3 ae c2 3c
       0.024646217 -0.023625068 0.024952747 0.023765033
000320 7f e0 c8 3c 11 e9 cb 3c cb 9c bf bc cf 84 c7 bc
       0.02452111 0.024891408 -0.023390194 -0.02435532
000330 25 d7 c7 3c 25 a8 cc bc 28 46 cb bc 8e b8 cb 3c
       0.024394581 -0.024982521 -0.024813727 0.024868276
000340 f0 d3 c5 bc 7a a4 c9 bc 6b 72 c7 bc 7c 9c c7 bc
       -0.024148911 -0.024614561 -0.02434655 -0.02436661
000350 ac 8c c5 bc 4d 8b cb bc 36 50 cc 3c ba 99 c9 3c
       -0.02411493 -0.024846697 0.024940591 0.024609435
000360 bc 92 ca 3c 12 5c cd 3c 6a 96 ca 3c ce c3 c5 3c
       0.024728172 0.025068317 0.024729926 0.024141219
000370 d5 9e c3 3c b8 52 c7 bc b3 0c c5 3c 67 78 c4 bc
       0.023879448 -0.024331436 0.024053907 -0.023983194
000380 c9 c6 c5 3c 45 ab c3 bc 5f 6a c9 bc e9 18 cc bc
       0.02414264 -0.023885379 -0.024586855 -0.024914222
000390 cc 29 c5 bc 6c f5 c1 bc 20 b5 ca 3c b7 24 c6 bc
       -0.024067782 -0.023676597 0.02474457 -0.024187429
0003a0 4f 33 c8 3c 71 82 cb bc 09 23 c2 bc 78 03 cf 3c
       0.024438528 -0.024842473 -0.023698347 0.025270209
0003b0 8b 0d c5 3c 3d 8c c8 3c b5 c8 c9 bc cb af cd bc
       0.02405431 0.024480933 -0.024631837 -0.025108239
0003c0 ff c1 c7 3c 1d 4d c9 3c 7e fa ce 3c b4 ff c8 3c
       0.024384497 0.024572903 0.025265928 0.024535991
0003d0 3b 52 ca 3c 18 0d c7 bc 79 8f cd 3c c7 4d c5 bc
       0.024697414 -0.024298236 0.025092827 -0.024084939
0003e0 37 2a d0 3c 70 40 c6 3c 91 5f c9 3c f0 d6 cd 3c
       0.025410755 0.024200648 0.024581702 0.025126904
0003f0 39 ec c0 bc d1 26 c9 bc b3 68 c8 3c eb 85 cd bc
       -0.02355014 -0.024554642 0.024463987 -0.025088271

ode_f.f.3.bias f4 [50]
000000 20 ee 80 bd 3c 4e 7c bd 89 5a 81 3d a9 4d 7e bd
       -0.06295419 -0.061598048 0.06316096 -0.06208578
000010 95 aa 80 bd a2 c6 81 bd 0c 2f 7f 3d 19 89 80 bd
       -0.06282536 -0.06336714 0.062300727 -0.06276149
000020 eb 2e 7e 3d e8 b8 7e bd a4 68 81 3d 17 10 82 bd
       0.062056463 -0.06218806 0.06318787 -0.06350725
000030 c9 9e 81 bd 7a 90 82 3d 38 07 82 3d 61 29 81 3d
       -0.06329114 0.06375213 0.06349033 0.063067205
000040 5c 3a 80 bd 71 8f 80 3d b9 91 83 bd db 14 81 3d
       -0.06261131 0.06277359 -0.06424279 0.06302806
000050 02 4c 7d 3d 2d 73 81 3d 51 04 7f 3d bd 37 81 bd
       0.061840065 0.06320796 0.062259976 -0.06309459
000060 db 68 7e 3d e0 5d 7d 3d b4 04 7f 3d 7f 32 81 bd
       0.062111717 0.061857104 0.062260345 -0.063084595
000070 9a d4 81 3d f9 a7 7c bd 4a 4a 82 bd 19 28 80 bd
       0.06339379 -0.06168363 -0.06361826 -0.06257648
000080 d7 33 80 bd 27 0a 81 3d 65 4b 82 3d ed a7 80 bd
       -0.06259888 0.063007645 0.063620366 -0.06282029
000090 dc 88 80 bd e7 55 80 3d e9 7b 82 bd 98 3c 7d 3d
       -0.06276104 0.062663846 -0.0637129 0.061825365
0000a0 c8 0f 80 bd 30 30 7c bd 18 86 80 3d 52 90 7f bd
       -0.0625301 -0.061569393 0.06275576 -0.062393494
0000b0 f0 19 81 bd 70 6b 80 3d 0c 13 81 3d 37 9b 7e bd
       -0.06303775 0.06270492 0.06302461 -0.062159743
0000c0 16 59 82 3d 92 0a 80 bd
       0.06364648 -0.06252016

ode_f.f.6.weight f4 [10, 50]
000000 e4 8d 46 bd b4 6e 40 bd 9c b9 48 3d 92 7f 42 bd
       -0.04847516 -0.046980575 0.049005136 -0.04748494
000010 8a 7a 47 bd 67 71 49 bd e7 40 44 3d a8 29 45 bd
       -0.048700847 -0.049180415 0.04791346 -0.04813543
000020 9a b2 42 3d 01 e3 44 bd 7a 6f 46 3d 80 54 49 bd
       0.04753361 -0.04806805 0.048446156 -0.04915285
000030 55 d0 48 bd 5a 1b 49 3d 26 c4 49 3d 58 f4 45 3d
       -0.049026806 0.04909835 0.049259327 0.048328727
000040 00 16 46 bd 33 03 45 3d 6a eb 4b bd 68 e6 46 3d
       -0.048360825 0.048098754 -0.049785055 0.048559576
000050 15 9d 41 3d c9 5f 47 3d c0 a5 43 3d d3 9d 47 bd
       0.047268946 0.048675332 0.047765493 -0.048734497
000060 a2 0e 42 3d fd a0 41 3d 40 96 43 3d 3a 37 47 bd
       0.047377236 0.04727267 0.04775071 -0.048636653
000070 65 ab 47 3d e4 38 40 bd b0 88 49 bd f3 dc 44 bd
       0.04874744 -0.046929255 -0.04920262 -0.048062276
000080 d6 0e 45 bd 5d 7e 47 3d 2b 17 48 3d f4 3a 46 bd
       -0.04810985 0.048704494 0.04885022 -0.048396066
000090 4e 5d 45 bd fb 1b 45 3d 77 f0 49 bd 14 10 42 3d
       -0.048184685 0.048122387 -0.04930159 0.047378615
0000a0 03 0d 44 bd 71 63 41 bd d9 a5 45 3d 38 19 44 bd
       -0.04786397 -0.047213975 0.048253868 -0.047875613
0000b0 2e c0 48 bd 08 37 46 3d 2b 2c 47 3d 10 82 42 bd
       -0.0490114 0.048392326 0.048626106 -0.04748732
0000c0 d0 7f 48 3d 13 97 44 bd b6 35 4c bd 3d 05 46 bd
       0.048950016 -0.047995638 -0.04985591 -0.04834484
0000d0 20 77 4e 3d 40 17 48 bd 69 24 4d bd 65 2b 4f bd
       0.050406575 -0.048850298 -0.05008355 -0.050578494
0000e0 8b f6 49 3d 47 dd 4a bd 37 48 48 3d ce 73 4a bd
       0.049307387 -0.049527433 0.048896994 -0.049426846
0000f0 24 32 4c 3d 7d 18 4f bd a7 7c 4e bd 70 ed 4e 3d
       0.049852505 -0.050560463 -0.050411846 0.050519407
000100 16 7d 4f 3d d6 a3 4b 3d 67 c7 4b bd 10 ae 4a 3d
       0.0506564 0.049716793 -0.04975071 0.049482405
000110 fc ac 51 bd 19 8e 4c 3d d7 36 47 3d 24 28 4d 3d
       -0.05119036 0.049940202 0.048636284 0.05008711
000120 21 44 49 3d cb 64 4d bd 97 b8 47 3d 4c 42 47 3d
       0.04913724 -0.05014495 0.048760023 0.04864721
000130 2c 36 49 3d b5 e5 4c bd 43 76 4d 3d 09 cd 45 bd
       0.049123928 -0.050023753 0.05016161 -0.04829124
000140 c8 46 4f bd d0 82 4a bd e9 ba 4a bd b1 20 4d 3d
       -0.05060461 -0.04944116 -0.049494658 0.050080005
000150 f7 dc 4d 3d 47 ea 4b bd d5 10 4b bd ff c6 4a 3d
       0.050259557 -0.04978397 -0.0495766 0.049506184
000160 f6 bc 4f bd f3 9f 47 3d 9f c9 49 bd 20 06 47 bd
       -0.050717317 0.048736524 -0.049264546 -0.048589826
000170 52 52 4b 3d 36 b1 49 bd 7e 6d 4e bd c5 d6 4b 3d
       0.049639054 -0.049241267 -0.05039739 0.049765367
000180 1b d8 4c 3d c5 2b 48 bd 32 52 4e 3d 99 33 4a bd
       0.05001078 -0.048869867 0.050371356 -0.049365614
000190 44 e1 25 bd 09 20 20 bd c0 be 27 3d da 28 22 bd
       -0.040498033 -0.03909305 0.040953398 -0.03958974
0001a0 e4 f8 26 bd 12 a0 28 bd 6e ad 23 3d 2c 83 24 bd
       -0.040764704 -0.04116828 0.039960317 -0.040164158
0001b0 5f 6b 22 3d 16 97 24 bd 11 84 25 3d 34 54 28 bd
       0.03965318 -0.04018315 0.04040915 -0.041095927
0001c0 7f f9 27 bd ba db 27 3d 59 e4 28 3d 5d fb 24 3d
       -0.041009422 0.040981032 0.041233394 0.04027878
0001d0 1e 8b 25 bd 8d 8d 24 3d 0a ae 2a bd 9a 2c 26 3d
       -0.040415876 0.040174056 -0.041669883 0.04056988
0001e0 b8 5d 21 3d 36 67 26 3d 24 3a 23 3d 40 be 26 bd
       0.039396018 0.040625773 0.03985037 -0.04070878
0001f0 77 5d 21 3d 4e 56 21 3d 17 55 23 3d 14 58 26 bd
       0.039395776 0.039388947 0.03987607 -0.04061134
000200 b8 9a 26 3d 59 08 20 bd 8c 83 28 bd 45 45 24 bd
       0.040674895 -0.03907046 -0.041141078 -0.040105123
000210 52 80 24 bd 80 d6 26 3d eb fc 26 3d e1 98 25 bd
       -0.04016144 0.040731907 0.040768545 -0.040429
000220 09 c2 24 bd 70 62 24 3d 77 b8 28 bd 21 ff 21 3d
       -0.04022411 0.04013294 -0.041191544 0.03954995
000230 4d 40 23 bd 41 54 21 bd 29 29 25 3d a4 ba 23 bd
       -0.039856244 -0.03938699 0.040322457 -0.039972916
000240 3c 14 28 bd d7 b4 25 3d 83 8c 26 3d a8 21 22 bd
       -0.041034922 0.040455665 0.040661346 -0.03958288
000250 2b 57 27 3d 70 1c 24 bd 7c 79 3f 3d 5b 41 3b 3d
       0.040854614 -0.040066183 0.046746716 0.045716625
000260 41 ca 42 bd 26 6a 3c 3d 0e e4 40 3d 9f 2e 45 3d
       -0.047556166 0.04599967 0.04709249 0.048140164
000270 87 e9 40 bd 73 14 40 3d 65 c0 3c bd e9 9b 3e 3d
       -0.04709771 0.046894502 -0.04608192 0.046535406
000280 74 72 42 bd a3 c5 44 3d d6 7c 43 3d d3 31 44 bd
       -0.047472432 0.048040044 0.047726475 -0.04789908
000290 82 f2 44 bd 63 ef 3f bd d1 6f 40 3d eb 98 42 bd
       -0.048082836 -0.046859156 0.046981636 -0.047509115
0002a0 b6 9e 47 3d 38 91 40 bd c7 9a 3c bd 55 eb 42 bd
       0.048735343 -0.04701349 -0.046046045 -0.04758771
0002b0 49 90 3d bd 28 b0 41 3d 8f 4a 3e bd 8d 36 3c bd
       -0.04628018 0.047287136 -0.046457823 -0.04595046
0002c0 97 36 3d bd 22 0b 43 3d 82 ab 44 bd 99 d9 3c 3d
       -0.04619464 0.04761804 -0.048015125 0.046105955
0002d0 e3 f4 45 3d 6c f9 3d 3d a6 2b 41 3d ca cc 42 bd
       0.048329245 0.046380445 0.047160767 -0.047558583
0002e0 50 ef 45 bd 0c cf 3f 3d 48 9c 40 3d 35 95 3f bd
       -0.04832393 0.046828315 0.04702404 -0.046773154
0002f0 f2 a8 43 3d bd fa 3c bd d4 1f 40 3d fc ef 3b 3d
       0.04776854 -0.04613756 0.046905354 0.045883164
000300 ca 64 3e bd b7 0d 3f 3d 57 52 44 3d 83 5e 40 bd
       -0.04648284 0.04664394 0.047930088 -0.046965133
000310 b4 f0 44 bd 23 db 3e 3d 8b b1 44 bd 19 5a 3f 3d
       -0.048081115 0.046595704 -0.04802088 0.046716783
000320 b1 eb 42 bd b8 da 3c bd ea 1b 45 3d 48 ec 3e bd
       -0.047588054 -0.046107024 0.048122324 -0.046612054
000330 f8 e7 43 bd 70 db 45 bd 58 af 40 3d e3 80 41 bd
       -0.047828645 -0.048304975 0.04704222 -0.047242057
000340 5e 21 3f 3d 59 43 41 bd fd d5 42 3d 9d b7 45 bd
       0.04666268 -0.04718337 0.047567356 -0.04827081
000350 60 2d 45 bd 02 81 45 3d 84 22 46 3d 50 50 42 3d
       -0.048138976 0.048218735 0.04837276 0.047439873
000360 ec 7a 42 bd ee 75 41 3d ac 3a 48 bd 84 3f 43 3d
       -0.04748051 0.047231607 -0.04888408 0.047667995
000370 23 0f 3e 3d 5b c8 43 3d 22 18 40 3d 09 06 44 bd
       0.046401154 0.047798496 0.046898015 -0.047857318
000380 05 78 3e 3d 59 13 3e 3d 5c 08 40 3d 89 8d 43 bd
       0.04650118 0.04640517 0.046882972 -0.0477424
000390 62 1d 44 3d cd a9 3c bd ac e0 45 bd 34 44 41 bd
       0.047879584 -0.046060372 -0.048309967 -0.047184184
0003a0 ea 6c 41 bd 30 ec 43 3d c7 74 44 3d 11 a2 42 bd
       -0.04722301 0.047832668 0.04796293 -0.04751784
0003b0 aa c3 41 bd 46 7c 41 3d 74 48 46 bd ea 7d 3e 3d
       -0.04730574 0.047237657 -0.04840894 0.0465068
0003c0 42 79 40 bd 6c d9 3d bd d2 0c 42 3d 37 7b 40 bd
       -0.04699064 -0.046349928 0.047375508 -0.046992507
0003d0 62 20 45 bd 38 98 42 3d e2 97 43 3d 30 ef 3e bd
       -0.048126586 0.04750845 0.04775227 -0.046614826
0003e0 3f df 44 3d 5f f7 40 bd 84 a6 1a be 23 5b 18 be
       0.048064467 -0.04711091 -0.15102583 -0.14878516
0003f0 47 70 1b 3e d5 d6 18 be 4a 50 1a be 70 d6 1b be
       0.15179549 -0.14925702 -0.1506969 -0.1521852

ode_f.f.6.bias f4 [10]
000000 75 e1 cc 3d a3 f8 d2 3d 26 b9 ab 3d a5 45 e7 bd
       0.1000394 0.1030133 0.08384924 -0.112925805
000010 48 fb c9 3d 71 c1 a4 3e 95 56 ab 3d 86 28 b8 3d
       0.09862381 0.32178834 0.083661236 0.08992104
000020 55 b6 85 bd 06 90 ac 3d
       -0.06528918 0.08425908

encoder_map.ffnn.0.weight f4 [50, 1]
000000 39 9e ca 3d 00 fa b0 bd 6d fe ab 3d dc e7 af 3d
       0.0989346 -0.08641434 0.08398137 0.085891455
000010 0e 56 b7 bd 2c 7d af bd 67 a9 a0 bd 7d aa bb bd
       -0.089519605 -0.085687965 -0.07844811 -0.091633774
000020 02 9b aa bd 96 19 b2 3d ff 8a b9 bd e8 ec b9 3d
       -0.08330347 0.086962864 -0.090597145 0.090783894
000030 4f 46 a4 3d 8b b6 ab 3d 4d 9a b9 bd 4f 17 ab bd
       0.08021223 0.08384427 -0.09062634 -0.08354055
000040 24 1f ab bd d9 f8 b1 3d aa c8 ba bd 7a 01 ac 3d
       -0.08355549 0.08690042 -0.09120305 0.08398719
000050 4f 13 ad 3d 6c 0d 97 3d 00 29 b2 bd ba 18 a7 3d
       0.084509484 0.07375607 -0.086992264 0.08159013
000060 f2 72 af bd c1 34 ae bd 57 21 b6 bd fe 8e b6 3d
       -0.08566846 -0.08506156 -0.08893078 0.08913992
000070 73 32 b3 3d 31 b5 ac bd e4 1b b3 bd 9c ad ba 3d
       0.08749857 -0.08432997 -0.08745554 0.091151446
000080 b5 78 b7 bd 98 05 bf 3d 62 b2 c3 3d 24 ba b1 bd
       -0.0895857 0.09327239 0.09555508 -0.08678082
000090 53 5b 31 b6 7d 78 a7 bd ca 40 b2 3d 2b 9f a4 bd
       -2.6428213e-06 -0.08177278 0.08703764 -0.080381714
0000a0 b3 e1 b8 3d 55 01 c1 3d 3b 96 c4 3d a0 e6 aa bd
       0.09027424 0.09424082 0.09598967 -0.083447695
0000b0 60 ac ac 3d bc f5 b3 bd 88 f0 a8 3d 95 b8 ad bd
       0.084313154 -0.087871045 0.08249003 -0.08482472
0000c0 3b 03 b6 3d dd 67 ba bd
       0.08887335 -0.091018416

encoder_map.ffnn.0.bias f4 [50]
000000 c2 e5 9e 3d 70 7c 89 bd 5c e9 84 3d 5f 68 88 3d
       0.077586666 -0.06713188 0.06489822 0.06660532
000010 48 a5 8d bd 40 9a 87 bd 5e 5c 75 bd 80 26 92 bd
       -0.069162905 -0.06621218 -0.05990254 -0.071362495
000020 aa 2f 83 bd 31 b7 8a 3d e8 8f 90 bd 57 21 91 3d
       -0.064055756 0.06773222 -0.07058698 0.07086437
000030 a9 b7 7c 3d 6d a8 84 3d 61 98 90 bd 8c 0c 84 bd
       0.06169859 0.06477437 -0.07060314 -0.064477056
000040 0b ba 84 bd 5f aa 8a 3d a6 5a 92 bd 03 12 86 3d
       -0.064807974 0.06770777 -0.07146196 0.06546404
000050 14 f5 85 3d 7f 5c 69 3d e4 6b 8a bd 74 95 81 3d
       0.065408856 0.056972977 -0.0675886 0.06327334
000060 69 77 88 bd 4b 26 87 bd 15 25 8d bd 59 88 8d 3d
       -0.06663401 -0.06599101 -0.068918385 0.06910772
000070 8f b2 8a 3d 44 ab 86 bd 4c 65 8b bd fe d3 90 3d
       0.067723386 -0.06575635 -0.0680643 0.07071684
000080 85 a4 8d bd 35 b3 93 3d 6a ac 98 3d 67 d1 8a bd
       -0.06916145 0.072119154 0.074547604 -0.067782216
000090 31 f9 3c b6 04 b4 80 bd df a4 89 3d c4 7f 7e bd
       -2.8159232e-06 -0.06284335 0.067209 -0.062133566
0000a0 54 60 8f 3d 05 d4 95 3d 62 16 98 3d cb 7b 84 bd
       0.07000795 0.0731583 0.07426144 -0.06468924
0000b0 05 01 86 3d 89 a5 8b bd 0c 7d 83 3d a0 66 86 bd
       0.06543163 -0.06818683 0.06420335 -0.06562543
0000c0 61 48 8d 3d 67 82 90 bd
       0.06898571 -0.07056122

encoder_map.ffnn.3.weight f4 [50, 50]
000000 61 06 9e 3c d9 16 81 bc bc 2c 65 3c 79 56 78 3c
       0.019290151 -0.015757965 0.013987716 0.015157335
000010 8a 16 82 bc 3c 3a 78 bc 0f 9b 52 bc 9b eb 8d bc
       -0.015879888 -0.015150603 -0.012854352 -0.01732426
000020 7b 20 6c bc 07 a7 7c 3c 44 8e 91 bc 58 8f 88 3c
       -0.014412041 0.015420682 -0.017768033 0.016669914
000030 15 a6 5c 3c a1 60 7c 3c 2d 3c 90 bc cf b5 69 bc
       0.013467331 0.0154038975 -0.017606819 -0.014264538
000040 36 af 81 bc 9d 79 81 3c 63 9f 8c bc dd f9 7c 3c
       -0.015830617 0.01580506 -0.017165845 0.015440431
000050 12 ae 7d 3c a0 ee 52 3c 09 70 85 bc 5a 67 84 3c
       0.015483396 0.012874275 -0.016288774 0.016162563
000060 60 c5 7b bc b8 c4 80 bc f7 41 84 bc fe 6d 85 3c
       -0.015366882 -0.015718803 -0.016144736 0.0162878
000070 a0 2b 81 3c 02 60 80 bc 44 40 86 bc 75 c6 8c 3c
       0.015767872 -0.01567078 -0.016388066 0.017184475
000080 48 aa 79 bc 60 01 87 3c 6f 3f 90 3c f3 4c 85 bc
       -0.015238352 0.016480148 0.017608372 -0.016272044
000090 cf a1 47 35 a7 ab 66 bc fa 22 85 3c d0 36 72 bc
       7.436874e-07 -0.014079011 0.01625203 -0.014783576
0000a0 b1 18 83 3c 67 23 89 3c f5 a3 8c 3c 0d e8 83 bc
       0.016002985 0.016740514 0.017168025 -0.016101861
0000b0 da 03 7b 3c 93 32 89 bc c2 2e 86 3c 17 c3 7f bc
       0.0153207425 -0.016747748 0.016379718 -0.015610478
0000c0 0f 2b 88 3c a9 b1 7d bc ad 51 b2 b8 5f 89 5f 38
       0.016622094 -0.015484252 -8.502915e-05 5.329528e-05
0000d0 d7 5f 72 b8 7d 91 52 b8 24 f9 9f 38 87 50 8b 38
       -5.7786554e-05 -5.0203398e-05 7.628117e-05 6.643036e-05
0000e0 4a 26 87 38 a0 f3 28 38 21 4e 8d 38 8d 99 82 b8
       6.4444335e-05 4.0281215e-05 6.7379566e-05 -6.227484e-05
0000f0 b5 e9 3f 38 eb 30 a1 b8 99 ae b8 b8 95 ea bb b8
       4.5755605e-05 -7.68619e-05 -8.806325e-05 -8.960549e-05
000100 6f 4f 13 38 ef 17 52 38 fc 08 27 38 22 d9 8b b8
       3.512151e-05 5.009019e-05 3.982427e-05 -6.668481e-05
000110 d3 e3 6d 38 63 50 97 b8 a0 36 48 b8 91 83 63 b8
       5.671738e-05 -7.215214e-05 -4.773459e-05 -5.424355e-05
000120 ce 3e 1a 38 41 df 86 b8 2c d7 52 38 48 76 a6 37
       3.6774953e-05 -6.431202e-05 5.0268296e-05 1.9843821e-05
000130 7d 3f 9f 37 30 1f 6c b8 0d fd 68 b8 d6 7d 69 38
       1.8983841e-05 -5.629583e-05 -5.5548782e-05 5.5668723e-05
000140 3c 08 87 38 db bd 81 b8 bd 37 8b 38 fb 80 53 b8
       6.4388354e-05 -6.186563e-05 6.6384186e-05 -5.0426443e-05
000150 f8 32 9e b8 4e 07 a9 38 e2 d9 98 b3 ca 98 69 38
       -7.543521e-05 8.0599086e-05 -7.117684e-08 5.5693825e-05
000160 39 66 8f b8 64 f1 6c 38 d6 7f c7 b8 63 57 34 b7
       -6.837812e-05 5.6491597e-05 -9.512871e-05 -1.0749182e-05
000170 b3 c3 6c b8 7e d7 ea 37 1c 74 8c b8 00 89 83 37
       -5.6449044e-05 2.799532e-05 -6.697347e-05 1.5680213e-05
000180 63 39 1f b8 9d 7e 7a 38 00 1e ae b8 37 63 4a 38
       -3.7962e-05 5.9722563e-05 -8.3025545e-05 4.8252954e-05
000190 53 bf c1 3c f2 bb 9b bc f7 50 8f 3c b7 53 92 3c
       0.0236508 -0.019010518 0.017494662 0.017862184
0001a0 34 8d 9d bc 11 2c 95 bc d5 8d 7f bc 84 61 9f bc
       -0.01923237 -0.018209489 -0.01559778 -0.019455679
0001b0 2d 85 8c bc 4e 5a 95 3c 84 8c ad bc 37 6a a6 3c
       -0.017153347 0.018231537 -0.021185167 0.020314319
0001c0 30 38 7a 3c 7d 9c 91 3c 55 3c a7 bc 73 ed 89 bc
       0.015272185 0.017774815 -0.02041451 -0.016836857
0001d0 c5 2f 95 bc 19 95 9c 3c b6 b0 a5 bc 42 d8 98 3c
       -0.018211255 0.019114064 -0.020225864 0.018657807
0001e0 eb 70 9b 3c 0b 65 79 3c 9a 3f a0 bc c9 33 9d 3c
       0.018974742 0.015221844 -0.019561578 0.019189732
0001f0 79 bb 9a bc ce a8 99 bc c1 7b 9b bc 57 90 a4 3c
       -0.018888222 -0.01875725 -0.018979909 0.020088358
000200 84 fa 97 3c a0 09 9f bc 2d ff 99 bc d2 b4 a6 3c
       0.018552072 -0.01941377 -0.018798435 0.020349894
000210 a6 b8 95 bc 28 4b a1 3c 08 73 ab 3c 90 e5 a3 bc
       -0.018276524 0.019689158 0.020928875 -0.020006925
000220 28 6c 6e 35 c6 f3 89 bc 2e 41 96 3c 9e 3c 90 bc
       8.88193e-07 -0.016839873 0.018341627 -0.01760703
000230 58 09 9d 3c 7d 03 ac 3c 11 a1 ae 3c 73 93 9e bc
       0.019169495 0.020997757 0.021317037 -0.019357419
000240 25 fd 8d 3c c4 4a a2 bc 4c b8 9e 3c d2 2a 98 bc
       0.017332623 -0.019811042 0.019374989 -0.018575106
000250 78 8a a1 3c ed f7 a2 bc 48 b4 ba bc d8 b5 91 3c
       0.019719347 -0.01989361 -0.022791043 0.017786905
000260 ee f8 88 bc 20 b3 8d bc 68 8c 97 3c 04 26 8e 3c
       -0.016720261 -0.017297328 0.018499568 0.017352112
000270 72 8b 79 3c 25 0c a1 3c 0c 02 8a 3c 8f a0 8f bc
       0.015231 0.019659111 0.01684668 -0.017532615
000280 9a b5 a9 3c 10 4e a5 bc b9 26 76 bc c7 5b 8c bc
       0.020716477 -0.020178825 -0.015023881 -0.017133607
000290 ca 9c a1 3c f9 58 88 3c a3 71 8e 3c c9 c6 93 bc
       0.019728083 0.016643988 0.01738817 -0.018039124
0002a0 b9 8e a4 3c 7e f1 8e bc c1 88 90 bc f5 9d 76 bc
       0.020087587 -0.017449137 -0.017643334 -0.015052308
0002b0 81 2e 9c 3c c6 8c 93 bc cf 6a 93 3c 3e 2a 98 3c
       0.019065144 -0.018011462 0.017995266 0.01857483
0002c0 f1 6d 97 3c 95 0d 94 bc 75 21 8d bc 31 25 99 3c
       0.018485041 -0.018072883 -0.017227868 0.018694492
0002d0 ef c2 96 3c ce d4 9e bc 43 0f 8e 3c 70 c5 99 bc
       0.018403498 -0.019388583 0.017341262 -0.018770903
0002e0 c4 ef aa bc a1 8c 9a 3c 5d 3a 66 b5 5a 7e 87 3c
       -0.020866282 0.018865885 -8.5766607e-07 0.016539741
0002f0 93 db 92 bc c4 60 8d 3c 88 4a 9c bc 9f 7e 9c bc
       -0.017926967 0.017258056 -0.019078508 -0.019103346
000300 d8 a2 a8 bc 14 38 97 3c 4b e3 87 bc 6f 45 9c 3c
       -0.020585462 0.018459357 -0.016587874 0.019076077
000310 63 8e 90 bc 5f b8 8f 3c cb 49 a0 bc 41 31 98 3c
       -0.01764602 0.01754397 -0.019566437 0.018578174
000320 cf 6a 9e bc e2 b6 70 3c 10 8e 6d bc 50 d5 73 bc
       -0.01933804 0.01469204 -0.014499202 -0.014882401
000330 df 08 81 3c d8 8e 70 3c b3 3e 57 3c 87 7a 89 3c
       0.0157513 0.014682494 0.013137507 0.016782058
000340 dc f4 57 3c 0d 01 73 bc 2b 86 87 3c 82 ad 87 bc
       0.013180938 -0.0148317935 0.016543468 -0.016562227
000350 7b d3 57 bc e2 0f 7d bc d8 a1 8c 3c 0d 72 6a 3c
       -0.0131729795 -0.015445681 0.017167017 0.014309418
000360 35 fc 75 3c 05 08 7e bc 0c d9 87 3c fe d0 78 bc
       0.015013744 -0.015504842 0.016582988 -0.015186546
000370 c7 31 77 bc 98 3f 4d bc 1b d9 7f 3c 65 75 80 bc
       -0.015087551 -0.012527369 0.015615727 -0.015680978
000380 a4 3f 79 3c 0e de 7c 3c b5 a8 83 3c da 35 87 bc
       0.015212927 0.015433801 0.016071657 -0.01650517
000390 72 d9 7a bc 0a aa 7f 3c 49 3b 85 3c b0 bd 85 bc
       -0.015310632 0.015604505 0.01626362 -0.016325802
0003a0 68 bd 6b 3c fe 42 84 bc b1 32 8f bc ac eb 81 3c
       0.01438842 -0.016145226 -0.017480226 0.015859447
0003b0 74 c0 df b4 6d ef 58 3c 88 8c 83 bc e5 b8 6e 3c
       -4.1677015e-07 0.013240677 -0.016058221 0.0145704495
0003c0 24 7c 7e bc 9a c3 87 bc 62 9a 8c bc b6 f0 88 3c
       -0.015532527 -0.016572762 -0.01716346 0.016716342
0003d0 5d 79 69 bc 2d dc 83 3c 0e e7 79 bc 8c 55 72 3c
       -0.014250127 0.016096199 -0.015252842 0.014790904
0003e0 c8 88 89 bc 48 1a 82 3c c6 1a 6c bc 60 14 38 3c
       -0.016788855 0.015881673 -0.01441068 0.0112353265
0003f0 f8 5c 2e bc f6 aa 3f bc d5 34 3b 3c 2d 4d 2e 3c
       -0.010642283 -0.011698475 0.01142617 0.010638517

encoder_map.ffnn.3.bias f4 [50]
000000 ef 3b ed 3d 8a 5e fa 39 97 87 05 3e 60 22 03 be
       0.11583697 0.00047754153 0.13040005 -0.12806082
000010 83 26 e5 bd 5f ee 9d bd 9c 63 fa 3d 10 59 d4 bd
       -0.11188986 -0.07711481 0.1222603 -0.1036855
000020 7e b7 f6 bd 5b 51 5b 39 71 9d 6c b9 93 63 d6 3d
       -0.12046717 0.00020915775 -0.00022565365 0.10468211
000030 b1 7c e8 3d 78 e6 94 3d 92 88 e9 3d 58 7e d6 3d
       0.11351908 0.07270521 0.11403002 0.10473317
000040 44 b6 0d be c7 4b 05 be f8 3e 0a 3e c0 1e 09 be
       -0.1383906 -0.13017188 0.13500583 -0.13390636
000050 98 bb f1 bd c6 89 03 be 1b 4c da bd 06 ae 85 38
       -0.11803359 -0.12845525 -0.10659047 6.3743486e-05
000060 7e b6 8a 39 56 b5 08 be de 4c ee 3d a8 e0 d7 3d
       0.00026457378 -0.13350424 0.11635755 0.10540897
000070 69 6a 05 3e 05 24 02 3e df 10 dc 3d 72 45 92 bd
       0.13028874 0.12709053 0.107454054 -0.07142152
000080 d4 67 ec b4 a0 a3 e7 3d b4 ed ed bd 21 bd bf 3d
       -4.403397e-07 0.11310506 -0.11617604 0.09362245
000090 eb c3 f8 bd da 11 dd 3d fd cf 84 35 83 f9 07 be
       -0.121467434 0.107944205 9.895299e-07 -0.13278775
0000a0 03 b8 03 3e b6 c3 f3 3d 64 3b ec 3d 6e fb 38 ba
       0.12863164 0.11902563 0.11534765 -0.0007056509
0000b0 e5 d3 bd bd 4a 21 fd bd 60 fe fc bd 6e 12 fd bd
       -0.09268931 -0.12359865 -0.12353206 -0.12357031
0000c0 39 4a 03 3e 6c 5f a8 bd
       0.12821282 -0.08221325

encoder_map.ffnn.6.weight f4 [10, 50]
000000 4f f1 07 3d 4f d2 53 b8 41 23 11 3d 65 47 66 bd
       0.033189114 -5.0502185e-05 0.03543401 -0.05622043
000010 58 39 fe bc be fd af bc e7 cf 36 3d 18 a4 f1 bc
       -0.031033203 -0.021483298 0.044631865 -0.029497191
000020 8c 8d 2e bd fc ff 2f 39 98 99 a4 38 d5 49 fc 3c
       -0.04261546 0.00016784662 7.8487385e-05 0.030796925
000030 d7 77 01 3d 6f 05 ac 3c f0 99 0a 3d 94 db f0 3c
       0.03160843 0.020998685 0.033838212 0.029401578
000040 7b eb 72 bd 34 42 45 bd 74 30 56 3d f1 11 67 bd
       -0.059306603 -0.04815884 0.052292302 -0.056413595
000050 34 b0 f7 bc 19 99 c8 bc 0b 87 00 bd 4c 43 83 38
       -0.030235387 -0.024487065 -0.031378787 6.259102e-05
000060 48 b3 8f b8 04 c3 6e bd ae 16 10 3d e8 c5 ff 3c
       -6.852165e-05 -0.05829145 0.03517788 0.031222299
000070 e3 85 0a 3d 83 c9 51 3d 91 bb 09 3d 8d 0f 9e bc
       0.03381909 0.051217567 0.033626143 -0.019294525
000080 c4 be 71 b5 73 95 f3 3c cb 66 1b bd 99 44 d8 3c
       -9.0057097e-07 0.029734349 -0.037939828 0.026399897
000090 61 0c 30 bd 14 87 fc 3c 9f 96 3d 35 09 f8 49 bd
       -0.042980555 0.030826129 7.062717e-07 -0.04930881
0000a0 01 10 2e 3d 82 ce 0e 3d 09 9a 11 3d cc 8b 87 37
       0.04249573 0.03486491 0.03554729 1.6158352e-05
0000b0 e7 37 c4 bc c9 40 d8 bc a9 4f 1f bd 11 9c 1e bd
       -0.023952438 -0.02639808 -0.03889433 -0.038723055
0000c0 e6 b0 25 3d e9 bf b2 bc d3 26 15 3d 73 b6 34 b8
       0.040451907 -0.021820026 0.03641398 -4.3085263e-05
0000d0 05 8c 1b 3d 57 c5 07 bd 6e 81 11 bd f1 0c aa bc
       0.03797533 -0.033147182 -0.035523824 -0.020758124
0000e0 71 33 13 3d 76 71 fd bc 04 ec 18 bd c5 f3 2f 39
       0.03593773 -0.030937891 -0.037334457 0.00016780112
0000f0 9c ff a0 38 54 c0 f5 3c 0b dc 02 3d 1b ff a5 3c
       7.6770055e-05 0.029998936 0.03194813 0.020263245
000100 83 6e 0f 3d 13 15 f9 3c 5f 99 37 bd 6c 74 15 bd
       0.0350175 0.030405557 -0.044824 -0.03648798
000110 60 d9 1c 3d a6 f8 09 bd 85 80 40 bd 9c ff 5e bd
       0.038293242 -0.033684395 -0.046997566 -0.054442987
000120 01 6f ef bc 16 6b 83 38 a3 a3 96 b8 56 29 3a bd
       -0.029227735 6.266513e-05 -7.183037e-05 -0.045449577
000130 c7 ae 0f 3d d9 97 f7 3c 2b 8e 88 3d f7 39 ed 3c
       0.03507879 0.030223774 0.066677414 0.028958304
000140 54 4d 03 3d 81 b6 98 bc 9d 31 68 b5 1d bc 08 3d
       0.032056168 -0.018641712 -8.649893e-07 0.033382524
000150 07 26 0f bd 53 3e d0 3c 33 f9 08 bd 9f 51 fa 3c
       -0.034948375 0.025420344 -0.03344078 0.030556498
000160 9f 67 40 35 8c c6 37 bd e4 55 24 3d d6 cd 33 3d
       7.167636e-07 -0.044867083 0.040120974 0.043897472
000170 e8 69 f8 3c 34 de 6f 37 c9 6d be bc b4 fb 4e bd
       0.030323938 1.4297246e-05 -0.023245709 -0.05053301
000180 27 24 57 bd 3d ee 11 bd aa 42 86 3d 92 74 ac bc
       -0.052524712 -0.035627592 0.06555684 -0.021051679
000190 99 28 f3 3c f3 19 39 b8 8b 99 45 3d da d1 14 bd
       0.029682444 -4.4131604e-05 0.048242133 -0.036332943
0001a0 33 18 e9 bc 35 5a a4 bc 44 ab 00 3d 29 fd e4 bc
       -0.028453922 -0.020062545 0.03141333 -0.027952747
0001b0 91 8f ea bc 4a f3 28 39 38 f2 9f 38 8f 33 d6 3c
       -0.02863291 0.00016112361 7.6268276e-05 0.026147632
0001c0 3d 32 07 3d e6 c6 a0 3c e3 80 f0 3c 8d 25 e8 3c
       0.033006895 0.019626092 0.029358333 0.028338218
0001d0 82 29 6a bd 0e d5 08 bd 17 ce 28 3d 5f 53 2c bd
       -0.05716849 -0.03340631 0.041212168 -0.042071696
0001e0 33 c7 32 bd a8 31 0c bd f8 0d 16 bd f9 f5 7a 38
       -0.043647002 -0.034227043 -0.036634415 5.9833725e-05
0001f0 90 08 59 b8 86 ff de bc c0 d7 f6 3c 19 e4 e9 3c
       -5.1744806e-05 -0.027221452 0.030132174 0.028551148
000200 96 6e 13 3d 86 01 4b 3d 58 3d df 3c 96 5f 94 bc
       0.035994135 0.049562 0.02725093 -0.018111985
000210 39 19 65 b5 be e3 03 3d 33 b8 12 bd 08 a2 c8 3c
       -8.534585e-07 0.032199614 -0.035820197 0.024491325
000220 e1 50 09 bd 06 e9 ec 3c aa ab 15 35 d9 13 23 bd
       -0.033524398 0.028919708 5.575663e-07 -0.03981385
000230 c3 40 1f 3d 7c 27 13 3d 74 7c 18 3d 54 18 99 37
       0.03888012 0.035926327 0.037228063 1.825035e-05
000240 7f 1e b7 bc c8 ef 13 bd a7 af ff bc 06 80 00 bd
       -0.022353409 -0.036117345 -0.031211687 -0.031372093
000250 ad 48 09 3d bb f4 a6 bc 69 37 eb bd f8 a1 68 ba
       0.033516575 -0.020380368 -0.11485178 -0.0008874233
000260 83 66 11 be e0 e2 10 3e 3d b5 da 3d e1 cf 93 3d
       -0.14199261 0.14149046 0.106791 0.07217384
000270 01 e2 09 be 3b 50 cf 3d 13 7e ff 3d b4 3e d6 b9
       -0.1346512 0.101227246 0.124752186 -0.00040863978
000280 51 b6 62 3a fc 85 cc bd d5 66 e7 bd e9 77 91 bd
       0.0008648383 -0.09986493 -0.112989105 -0.07102949
000290 10 60 e1 bd 5c a5 d1 bd 21 69 21 3e 6f ab 0f 3e
       -0.110046506 -0.10236618 0.1576276 0.1403024
0002a0 a1 87 19 be 2c dd 1a 3e 9f 72 ee 3d a3 c9 12 3e
       -0.14993145 0.15123433 0.11642956 0.14334731
0002b0 f3 e1 db 3d c0 9b ec b8 b3 f5 b1 ba c1 d3 16 3e
       0.10736456 -0.000112823676 -0.0013577252 0.14729215
0002c0 05 33 e5 bd 13 0d d2 bd 62 b4 1c be 07 6a 0b be
       -0.11191372 -0.102564 -0.15303186 -0.13614665
0002d0 ba 34 d8 bd 5c 77 85 3d e7 80 a6 35 7b 83 e2 bd
       -0.10556932 0.065169066 1.2405479e-06 -0.11060234
0002e0 47 79 ee 3d 26 37 b5 bd eb 34 02 3e b2 85 d1 bd
       0.116442256 -0.08848409 0.12715499 -0.102305785
0002f0 63 9f 19 b4 67 55 1c 3e d0 82 03 be 99 a1 f6 bd
       -1.430722e-07 0.15266953 -0.1284287 -0.12042541
000300 74 e2 e8 bd da 51 0f 3b 08 b8 a5 3d db 94 fe 3d
       -0.113713175 0.0021868856 0.08091742 0.12430736
000310 84 a1 0a 3e 2c 9c 0a 3e 78 a5 14 be 16 e3 98 3d
       0.13538176 0.13536137 -0.14516246 0.07465188
000320 14 46 19 3d 58 d8 1e b8 7c b2 1d 3d 89 5f 50 bd
       0.037420347 -3.787162e-05 0.038500294 -0.05087236
000330 b7 59 08 bd 74 fa a8 bc cd 30 37 3d 1f fb e9 bc
       -0.033288684 -0.020627238 0.044724274 -0.028562127
000340 45 3c 48 bd 21 38 2e 39 f8 5d 99 38 25 b2 00 3d
       -0.048885603 0.00016614843 7.3131116e-05 0.031419892
000350 ac 47 05 3d 67 2e a5 3c f1 01 03 3d 21 7f f7 3c
       0.032539055 0.020163728 0.031984273 0.030211987
000360 e0 9c f1 bc b7 71 ff bc 2f b5 40 3d 49 df 2b bd
       -0.02949375 -0.031182153 0.04704779 -0.04196099
000370 3b 0d d4 bc bc 93 4a bd aa 48 11 bd 99 e7 81 38
       -0.025885215 -0.049457297 -0.03546969 6.194338e-05
000380 77 b2 87 b8 ed 79 18 bd 50 aa 01 3d e7 f4 f4 3c
       -6.470543e-05 -0.037225652 0.031656563 0.029901935
000390 7d 1a 5f 3d 3c 24 04 3d df 95 fa 3c f8 0b 98 bc
       0.05446862 0.03226112 0.030589042 -0.018560395
0003a0 5e 2e 65 b5 f8 52 f7 3c a3 89 14 bd 62 42 cd 3c
       -8.537662e-07 0.03019093 -0.036264073 0.025056068
0003b0 63 7d 32 bd ba 35 fa 3c c6 77 34 35 a8 f4 81 bd
       -0.04357661 0.030543197 6.722952e-07 -0.063454926
0003c0 84 a3 f3 3c f8 fc e8 3c af d5 02 3d b8 b3 0b 37
       0.029741056 0.028440937 0.031942066 8.32689e-06
0003d0 ca 4a bd bc 36 cc c0 bc 73 10 3d bd 6a c9 f0 bc
       -0.023106951 -0.023534875 -0.046158265 -0.029392917
0003e0 0e 19 0a 3d ef ad ab bc 54 30 d8 bd c2 68 9f b8
       0.0337153 -0.020956961 -0.10556093 -7.6012235e-05
0003f0 62 35 05 be 4c 75 04 3e d1 40 c9 3d e6 7a 87 3d
       -0.13008645 0.1293537 0.09826816 0.06615238

encoder_map.ffnn.6.bias f4 [10]
000000 ea 3a 63 3d ad 3e 60 3d a6 4d 5d 3d 45 fc 8c be
       0.055476107 0.054747272 0.05402913 -0.27536216
000010 e9 40 4a 3d 42 10 97 be af f3 6a 3d 9c 44 36 3d
       0.04937831 -0.2950459 0.0573613 0.044499025
000020 d9 ba c9 bd 06 10 2d 3d
       -0.098500915 0.04225161
