data/saved_models/id-1/last_checkpoint/checkpt.tar (torch_old, 129135 bytes, 51 tensors)

ode_f.f.0.weight f4 [50, 13]
0	0xbdf442a8	-0.11926776
1	0xbc9f4854	-0.019443668
2	0xbea34db2	-0.31895214
3	0xbd8073ea	-0.06272109
4	0xbcebde6a	-0.028792579
5	0xbd44894c	-0.0479825
6	0xbcf143c4	-0.029451258
7	0xbbd51e7e	-0.006503879
8	0xbd858c4c	-0.065209
9	0xbc165875	-0.009176363
10	0xbd76eb72	-0.060283132
11	0xbcdbc288	-0.026826158
12	0xbdbc5d26	-0.09197454
13	0x3e13f566	0.14449081
14	0x3d4a913d	0.049454916
15	0x3e94a62a	0.29033023
16	0x3d28ce50	0.04121238
17	0x3d956a1b	0.07295629
18	0x3d87ef9f	0.06637501
19	0x3d5b5f55	0.053557713
20	0x3bc328bf	0.005955785
21	0xbc94892e	-0.018131819
22	0x3cb43d66	0.022001933
23	0x3c5b2b3f	0.01337701
24	0x3ca844e0	0.020540655
25	0x3db41770	0.08793533
26	0x3d92c023	0.071655534
27	0x3d3dc106	0.04632666
28	0x3e2de6fc	0.16982645
29	0x3d3f6abd	0.046732653
30	0x3d27d4da	0.040974475
31	0x3d942e9c	0.072354525
32	0x3d28cb9b	0.0412098
33	0x3d339770	0.043845594
34	0x3d3b5b28	0.04574123
35	0x3c3a6d20	0.0113785565
36	0x3d3bdc79	0.045864556
37	0x3cefb253	0.029259836
38	0x3d6aa2a7	0.057284024
39	0xbd9003ee	-0.070319995
40	0xbcaf9bdf	-0.02143663
41	0xbe99ff83	-0.30077752
42	0xbd55e0f2	-0.052216478
43	0xbd89a210	-0.06720364
44	0xbda240fd	-0.07922552
45	0x3c0f3f38	0.0087431
46	0xbd451147	-0.04811218
47	0xbc039daa	-0.0080331955
48	0xbd53ff62	-0.051757224
49	0xbd79947f	-0.060932633
50	0xbc9f7911	-0.019466909
51	0xbdb9b140	-0.09067011
52	0xbd995a85	-0.07487968
53	0x3c142c3f	0.009043752
54	0xbe8494cd	-0.25894776
55	0xbd1dec52	-0.03855545
56	0xbd05161a	-0.03249178
57	0xbd9b686c	-0.07588276
58	0xbd5ff374	-0.054675534
59	0xbd83d767	-0.06437569
60	0xbd402fa2	-0.046920426
61	0x3c0e3068	0.008678533
62	0xbd744de7	-0.059644606
63	0xbcec804e	-0.028869774
64	0xbd9fe333	-0.07807007
65	0x3db425d5	0.087962784
66	0x3d413da9	0.047177944
67	0x3e72d845	0.23715313
68	0x3d24c3c6	0.040225767
69	0x3cc6ad74	0.02425263
70	0x3d957020	0.07296777
71	0x3d526a81	0.0513711
72	0x3d335a10	0.043787062
73	0x3d21a382	0.039462574
74	0xbc1eb499	-0.0096866125
75	0x3d3d42cd	0.046206284
76	0x3ca71dcf	0.020399956
77	0x3d915ba1	0.07097555
78	0x3e11b533	0.14229278
79	0x3db6c0d3	0.08923497
80	0x3e9bf399	0.30459288
81	0x3d361896	0.04445704
82	0x3cba91c8	0.022774592
83	0x3d8c765b	0.06858512
84	0x3cf6292f	0.030048935
85	0x3cf651f6	0.030068379
86	0x3b39e2dd	0.002836398
87	0x3ca11cb4	0.019667007
88	0x3a8e4b32	0.001085615
89	0x3c270185	0.010193233
90	0x3dbe59fb	0.09294506
91	0xbda81abd	-0.08208225
92	0xbd3a5174	-0.045487836
93	0xbe511aaa	-0.20420328
94	0xbd3ce68a	-0.046118297
95	0xbd0cd79b	-0.034385305
96	0xbd968c69	-0.07351
97	0xbd3970d9	-0.045273636
98	0xbd3e3f91	-0.04644734
99	0xbd3b83b0	-0.045779884
100	0x3a3f1624	0.0007289371
101	0xbd413d6e	-0.047177725
102	0xbcd4863a	-0.02594291
103	0xbd8481ff	-0.06470107
104	0x3dd898ef	0.10576045
105	0x3d70c6be	0.058783285
106	0x3e8adb5a	0.27120477
107	0x3d270306	0.040774368
108	0x3b9dd3b1	0.0048164953
109	0x3da665b5	0.08124868
110	0x3d1fdc8c	0.03902869
111	0x3d6fdf8a	0.058562793
112	0x3cce52c1	0.025185945
113	0x3bfa862e	0.00764539
114	0x3ceb1420	0.02869612
115	0x3cc4cb70	0.024022788
116	0x3dab8cfb	0.08376499
117	0xbdd6774b	-0.10471972
118	0x3b998bf0	0.0046858713
119	0xbe8b90c3	-0.27258882
120	0xbd7fc169	-0.06244031
121	0xbd8b3966	-0.06798057
122	0xbd8c9a9b	-0.06865426
123	0x3c99af6a	0.018760402
124	0xbd668876	-0.056282483
125	0xbd6ee91b	-0.058327775
126	0xbd2b7f1d	-0.04186927
127	0x3bd1e0cd	0.006404972
128	0xbd077034	-0.03306599
129	0xbdab526e	-0.083653316
130	0xbdd2d99b	-0.10295411
131	0xbcf187b9	-0.029483663
132	0xbea09bca	-0.31368858
133	0xbd9c7d1e	-0.07641052
134	0xbcf8fa20	-0.030392706
135	0xbd536116	-0.05160626
136	0xbdacf655	-0.084454216
137	0x3d18c6e1	0.03729904
138	0xbcdcbb7a	-0.026944865
139	0xbd266f48	-0.04063347
140	0xbcd90372	-0.0264909
141	0xbc980899	-0.018558787
142	0xbdb8053c	-0.089853734
143	0x3d9ef282	0.077610984
144	0x3d342733	0.043982696
145	0x3e4e1613	0.20125608
146	0x3d5eca0b	0.054391902
147	0x3cd2e39a	0.025743295
148	0x3d9cf250	0.07663405
149	0x3d665c5c	0.056240425
150	0x3d1b6b0a	0.037943877
151	0x3d260bfe	0.04053878
152	0xbb306cc5	-0.00269203
153	0x3d312226	0.043245457
154	0x3cd228fa	0.025654305
155	0x3d7dd1ad	0.06196754
156	0xbde33cf9	-0.11095614
157	0xbcc8c8ff	-0.024509905
158	0xbe8344c1	-0.25638393
159	0xbd5a349f	-0.05327284
160	0xbd4dd851	-0.050255124
161	0xbd97917b	-0.07400795
162	0xbc338487	-0.01095689
163	0xbce6419a	-0.028107453
164	0xbd525b27	-0.05135646
165	0x3c8b8a9a	0.017033864
166	0xbd70c296	-0.05877932
167	0xbc9b75b4	-0.018977024
168	0xbda02edc	-0.07821438
169	0x3d977553	0.07395425
170	0x3d6fba5e	0.058527343
171	0x3e6d8191	0.23193957
172	0x3cb665c9	0.022265332
173	0x3d1c4f94	0.03816183
174	0x3da4c1ec	0.080448
175	0x3cd261ec	0.025681458
176	0x3cf1bc48	0.029508725
177	0x3d3cc39a	0.046084978
178	0x3c1c6949	0.009546586
179	0x3ca52f8c	0.020164274
180	0x3cfabd46	0.03060783
181	0x3d8bcf77	0.0682668
182	0x3db52dbf	0.08846616
183	0x3d3bca05	0.045846958
184	0x3e7dd5d4	0.247886
185	0x3d025bde	0.031825893
186	0x3cfe449e	0.031038579
187	0x3d9ddd46	0.0770822
188	0x3d34d305	0.044146556
189	0x3d31ab53	0.043376278
190	0x3d2e05a5	0.04248585
191	0xbc1fc38d	-0.009751213
192	0x3d170caa	0.03687731
193	0x3cad8891	0.021183284
194	0x3d963162	0.07333638
195	0xbdf9512f	-0.12173688
196	0xbcf9784a	-0.030452866
197	0xbea7bb4c	-0.32760084
198	0x3cd90636	0.02649222
199	0xbcfc5cfe	-0.03080606
200	0xbd6d1d60	-0.057889342
201	0xbd6c6a5c	-0.05771862
202	0xbd9ceebc	-0.076627225
203	0xbc9b71e2	-0.018975202
204	0xbd03f1f3	-0.032213163
205	0xbd2c26e5	-0.04202928
206	0xbcbed3d7	-0.023294372
207	0xbdc5816a	-0.096438244
208	0xbdef3362	-0.11679722
209	0xbc0c2c04	-0.008555416
210	0xbe73ab60	-0.23795843
211	0xbc88117a	-0.016609896
212	0xbd6f55de	-0.0584315
213	0xbdae6c01	-0.08516694
214	0xbd5aae5d	-0.053388942
215	0xbcf23565	-0.029566476
216	0xbc8b17c6	-0.01697911
217	0xba8e9d94	-0.0010880702
218	0xbc76ffb6	-0.015075615
219	0xbcdb4de1	-0.026770534
220	0xbd9601c7	-0.07324558
221	0xbd9f566c	-0.077801555
222	0xbd330dae	-0.043714218
223	0xbe4951ee	-0.1966016
224	0xbd367180	-0.044541836
225	0xbd06fc39	-0.032955382
226	0xbd990b67	-0.07472878
227	0xbd3c80e5	-0.04602136
228	0xbd40c96a	-0.047067083
229	0xbd3018e4	-0.042992488
230	0x3a28f20d	0.000644476
231	0xbd45f491	-0.04832894
232	0xbcd44692	-0.025912557
233	0xbd7a3cda	-0.06109319
234	0x3dbcdd42	0.09221889
235	0x3d31ce78	0.043409795
236	0x3e47a79b	0.1949753
237	0x3ccd9f71	0.025100442
238	0x3c94d917	0.018169923
239	0x3da01aa7	0.078175835
240	0x3d7b8a7c	0.061411366
241	0x3c50d657	0.012746415
242	0x3d7a82bd	0.061159838
243	0x3abcfc7e	0.001441851
244	0x3d34334b	0.04399423
245	0x3ce01647	0.027354373
246	0x3d74d442	0.059772737
247	0xbe0e56e8	-0.1390034
248	0xbdb2f616	-0.087383434
249	0xbe926793	-0.28594646
250	0x3c158e02	0.009128096
251	0x3c5d9c17	0.013525984
252	0xbd89bb9d	-0.067252375
253	0x3c80dcb6	0.015730243
254	0xbd9185d2	-0.07105602
255	0xbdb12420	-0.086494684

ode_f.f.0.bias f4 [50]
0	0xba282191	-0.0006413693
1	0x3cc51d97	0.024061961
2	0x3d2ccbf3	0.04218669
3	0xbcacfcee	-0.0211167
4	0xbcab1541	-0.020884158
5	0x3d14eb00	0.036356926
6	0x3d106c3e	0.035259478
7	0xbd2eb411	-0.042652193
8	0x3cef1617	0.029185338
9	0xbc896465	-0.016771505
10	0xbcd9df8a	-0.02659585
11	0x3d22ffee	0.039794855
12	0xbcf8b57a	-0.030359972
13	0x3cb9a83a	0.022663224
14	0x3d08b24f	0.033373173
15	0xbcb6d507	-0.022318376
16	0xbd0bfd70	-0.034177244
17	0xbd2e62ca	-0.04257468
18	0x3d01d052	0.03169281
19	0xbc8e4bf6	-0.017370205
20	0xbd26b26b	-0.040697496
21	0xbcc51726	-0.02405889
22	0xbb4314dd	-0.0029767074
23	0x3c918866	0.017765235
24	0xbc9ba88e	-0.019001272
25	0x3d10b42c	0.035328075
26	0xbbb30350	-0.0054630414
27	0xbccbb708	-0.02486755
28	0x3cb1e980	0.021717787
29	0xbd0aef10	-0.033919394
30	0xbd03d116	-0.03218182
31	0xbd17af46	-0.03703239
32	0x3d25a4e5	0.04044046
33	0x3cd70bb0	0.02625069
34	0x3cc7ea97	0.024403853
35	0xbd274e1c	-0.040845975
36	0xbd2f2c2b	-0.04276673
37	0x3cd51d36	0.026014905
38	0xbc547a49	-0.012968608
39	0xbcfc520e	-0.030800845
40	0xbd01d7cd	-0.031699944
41	0x3c9f4a69	0.019444661
42	0xbd2e8302	-0.042605408
43	0x3ba363eb	0.0049862764
44	0xbcc92e02	-0.024558071
45	0x3c4995e5	0.012303804
46	0xbd2675e6	-0.04063978
47	0x3d193b80	0.03741026
48	0x3c50885e	0.012727825
49	0xbd1d9d12	-0.038479872

ode_f.f.3.weight f4 [50, 50]
0	0x3d691616	0.05690583
1	0xbd5f796c	-0.054559156
2	0xbd2a909e	-0.041641824
3	0x3d5df622	0.05418981
4	0x3d4add04	0.049527183
5	0xbd47eae5	-0.048807997
6	0xbd6680b5	-0.05627509
7	0x3d3a93c0	0.04555106
8	0xbd5cac4d	-0.053875256
9	0x3d53e3c5	0.05173089
10	0x3d62f3a0	0.05540812
11	0xbd3692af	-0.044573482
12	0x3d4afec5	0.049559373
13	0xbd39c0ac	-0.04534976
14	0xbd46d942	-0.048547037
15	0x3d6a3775	0.057181794
16	0x3d42e6ff	0.047583576
17	0x3d3628f6	0.044472657
18	0xbd2cf3ce	-0.042224698
19	0x3d57faf5	0.052729566
20	0x3d2ed72d	0.042685676
21	0x3d4c626d	0.049898554
22	0x3d5392cf	0.05165368
23	0xbd68cb4a	-0.056834497
24	0x3d414e36	0.04719373
25	0xbd4e1e3b	-0.0503218
26	0x3d5ae209	0.05343822
27	0x3d6de0c0	0.058075666
28	0xbd5abe14	-0.05340393
29	0x3d5a70bb	0.053330164
30	0x3d5e16e1	0.054221038
31	0x3d3d31cf	0.04619008
32	0xbd5e84f0	-0.054325998
33	0xbd3f1ffc	-0.046661362
34	0xbd256a83	-0.04038478
35	0x3d44158d	0.047872115
36	0x3d2e95b7	0.042623248
37	0xbd5987d2	-0.053108044
38	0x3d528977	0.051400628
39	0x3d616ea4	0.055037156
40	0x3d56dcc0	0.052456617
41	0xbd5ff797	-0.05467948
42	0x3d427cd7	0.047482338
43	0xbd6457a3	-0.05574764
44	0x3d55ccf1	0.0521974
45	0xbd3cc42a	-0.046085514
46	0x3d2e3a47	0.042536046
47	0xbd28e42d	-0.04123323
48	0xbd599183	-0.053117286
49	0x3d32cd84	0.043653026
50	0xbd692f67	-0.056929972
51	0x3d60e3ef	0.054904874
52	0x3d29052c	0.041264698
53	0xbd5efa10	-0.054437697
54	0xbd48c5df	-0.04901683
55	0x3d412b87	0.04716065
56	0x3d671055	0.05641206
57	0xbd365de4	-0.044523135
58	0x3d5a1cd2	0.05325014
59	0xbd53af5c	-0.051680908
60	0xbd62a7ae	-0.055335693
61	0x3d3336a8	0.043753296
62	0xbd498742	-0.049201258
63	0x3d355eb7	0.04427978
64	0x3d46ec64	0.048565283
65	0xbd6b7ab4	-0.057490066
66	0xbd42edda	-0.047590114
67	0xbd3202e7	-0.0434598
68	0x3d2adea1	0.04171622
69	0xbd5a3c9d	-0.05328046
70	0xbd29b7d3	-0.041435074
71	0xbd48dbdc	-0.0490378
72	0xbd5334b5	-0.051563937
73	0x3d6af328	0.057360798
74	0xbd3efcca	-0.046627797
75	0x3d4ac348	0.04950264
76	0xbd5b8fd4	-0.053603962
77	0xbd6f581d	-0.05843364
78	0x3d5b4268	0.053530127
79	0xbd5b23a2	-0.05350078
80	0xbd5f8ec6	-0.05457952
81	0xbd3c4ce1	-0.045971755
82	0x3d5ea835	0.054359633
83	0x3d3e9f18	0.046538442
84	0x3d24b075	0.040207345
85	0xbd418de3	-0.047254454
86	0xbd2b8069	-0.04187051
87	0x3d583246	0.05278232
88	0xbd5497cc	-0.051902577
89	0xbd60c722	-0.054877408
90	0xbd559ae2	-0.05214966
91	0x3d60a76a	0.05484716
92	0xbd3cb4fc	-0.046071038
93	0x3d6575d1	0.05602056
94	0xbd54b68b	-0.0519319
95	0x3d3aed82	0.04563666
96	0xbd29a15f	-0.04141366
97	0x3d24d285	0.04023983
98	0x3d594a69	0.05304948
99	0xbd2fafaf	-0.042892154
100	0xbd69d599	-0.05708847
101	0x3d612b9e	0.054973237
102	0x3d2398df	0.03994071
103	0xbd5e02df	-0.054201957
104	0xbd4af052	-0.049545594
105	0x3d47fa81	0.048822884
106	0x3d6983b9	0.057010386
107	0xbd36c8fd	-0.04462527
108	0x3d5c9674	0.05385442
109	0xbd573b87	-0.052547004
110	0xbd6536e6	-0.05596056
111	0x3d34f167	0.04417553
112	0xbd4fe6f7	-0.050757375
113	0x3d378e94	0.044813707
114	0x3d49a470	0.049229085
115	0xbd6ba6e6	-0.057532214
116	0xbd4577f4	-0.0482101
117	0xbd31166b	-0.04323427
118	0x3d2af192	0.041734286
119	0xbd5a2615	-0.053258974
120	0xbd2704d1	-0.040776078
121	0xbd4c7585	-0.049916763
122	0xbd554016	-0.05206307
123	0x3d6db8ea	0.058037676
124	0xbd4242fb	-0.04742716
125	0x3d4ea706	0.050452255
126	0xbd5c625f	-0.05380475
127	0xbd7181c3	-0.05896164
128	0x3d5e2b4a	0.054240502
129	0xbd5b307a	-0.053513028
130	0xbd609e72	-0.054838605
131	0xbd3cf062	-0.046127684
132	0x3d62ef14	0.055403784
133	0x3d42cbac	0.047557518
134	0x3d2552b7	0.040362086
135	0xbd46aed9	-0.04850659
136	0xbd286a4c	-0.041116998
137	0x3d5eee51	0.054426495
138	0xbd574c02	-0.05256272
139	0xbd63b6cb	-0.055594247
140	0xbd57a0f7	-0.052643742
141	0x3d609616	0.054830633
142	0xbd3f3b10	-0.046687186
143	0x3d635fa9	0.05551115
144	0xbd55186a	-0.052025236
145	0x3d3dc134	0.04632683
146	0xbd282fda	-0.04106126
147	0x3d24c8af	0.04023045
148	0x3d5d7a74	0.05407186
149	0xbd30734f	-0.043078717
150	0xbd659857	-0.056053486
151	0x3d5e0d80	0.054212093
152	0x3d2de757	0.04245695
153	0xbd59dfd0	-0.05319196
154	0xbd474a66	-0.048654936
155	0x3d44e4a2	0.048069604
156	0x3d650d92	0.055921145
157	0xbd37058f	-0.044683035
158	0x3d5782ff	0.052615162
159	0xbd535347	-0.05159309
160	0xbd5f26cf	-0.05448037
161	0x3d35de7d	0.044401634
162	0xbd4c77c9	-0.049918924
163	0x3d3464bf	0.04404139
164	0x3d462b02	0.04838086
165	0xbd650fbb	-0.055923205
166	0xbd41d734	-0.047324374
167	0xbd35912d	-0.044327904
168	0x3d2b79dc	0.04186426
169	0xbd546e01	-0.05186272
170	0xbd2e722a	-0.042589344
171	0xbd4928a2	-0.049111016
172	0xbd5193ad	-0.051166225
173	0x3d66b654	0.056326225
174	0xbd3e9c2d	-0.04653566
175	0x3d4d13a3	0.050067555
176	0xbd5905fb	-0.05298422
177	0xbd6d4f40	-0.057936907
178	0x3d564c35	0.05231877
179	0xbd55f0a7	-0.052231457
180	0xbd5c3454	-0.05376084
181	0xbd3c4e2f	-0.045973
182	0x3d5baeff	0.053633686
183	0x3d3ff30c	0.046862647
184	0x3d226bea	0.039653696
185	0xbd4490cd	-0.047989655
186	0xbd2b906c	-0.04188578
187	0x3d58e9ca	0.052957334
188	0xbd528845	-0.051399488
189	0xbd5c9796	-0.0538555
190	0xbd549547	-0.051900174
191	0x3d5edebc	0.054411635
192	0xbd40fdab	-0.047116917
193	0x3d623a74	0.055231526
194	0xbd5264ce	-0.051365666
195	0x3d39b915	0.045342524
196	0xbd2e0303	-0.04248334
197	0x3d27aa4c	0.040933892
198	0x3d5a0608	0.053228408
199	0xbd30986f	-0.043114122
200	0x3d6d3b41	0.057917837
201	0xbd65e522	-0.05612672
202	0xbd2d0640	-0.04224229
203	0x3d62e9d5	0.05539878
204	0x3d4f10b4	0.05055304
205	0xbd49f13d	-0.04930233
206	0xbd6ccee1	-0.057814483
207	0x3d3b6cf3	0.0457582
208	0xbd5fcfd9	-0.05464158
209	0x3d586b48	0.052836686
210	0x3d674ee1	0.05647171
211	0xbd36c045	-0.044616956
212	0x3d511d3c	0.05105327
213	0xbd3e6c87	-0.04649022
214	0xbd4a6b0d	-0.049418498
215	0x3d6e6be4	0.05820836
216	0x3d48f1a7	0.049058583
217	0x3d3757f8	0.044761628
218	0xbd2ef180	-0.04271078
219	0x3d5d3e8a	0.05401472
220	0x3d302f92	0.043014117
221	0x3d4ff9f7	0.050775494
222	0x3d597077	0.05308577
223	0xbd70e1e8	-0.05880919
224	0x3d443607	0.047903087
225	0xbd4f6c81	-0.050640587
226	0x3d600094	0.05468805
227	0x3d74e275	0.05978628
228	0xbd604b1d	-0.054759134
229	0x3d5f44a4	0.05450882
230	0x3d629304	0.055315986
231	0x3d3fd05f	0.046829578
232	0xbd62ecd8	-0.055401653
233	0xbd43c0ed	-0.04779141
234	0xbd2b0c7f	-0.041759964
235	0x3d49be61	0.049253825
236	0x3d3084f6	0.04309555
237	0xbd611cdb	-0.05495916
238	0x3d59f9de	0.053216808
239	0x3d643135	0.05571099
240	0x3d5bb73e	0.05364155
241	0xbd66a37e	-0.056308262
242	0x3d44004b	0.047851842
243	0xbd6b3324	-0.05742182
244	0x3d5a058e	0.053227954
245	0xbd401ea1	-0.04690421
246	0x3d2e716a	0.04258863
247	0xbd2b2b60	-0.041789412
248	0xbd611995	-0.054956038
249	0x3d35954b	0.04433183
250	0xbd65e145	-0.056123037
251	0x3d5ee213	0.05441482
252	0x3d2cd2e8	0.042193323
253	0xbd5a9fc5	-0.053375024
254	0xbd495ab6	-0.049158774
255	0x3d450488	0.048100024

ode_f.f.3.bias f4 [50]
0	0xbdba7d73	-0.09105959
1	0x3db0d6b2	0.086347
2	0x3d611d73	0.054959726
3	0x3db60df9	0.08889384
4	0xbdb36fbb	-0.08761545
5	0x3db43fa5	0.08801202
6	0xbd517e35	-0.05114575
7	0xbdb70c6c	-0.08937916
8	0xbd633116	-0.055466734
9	0x3d6e441d	0.058170427
10	0xbdb767d8	-0.089553535
11	0xbd6e7124	-0.058213368
12	0xbd5e31a3	-0.054246556
13	0xbdb4c413	-0.08826461
14	0x3db50596	0.08838956
15	0x3d6d9dc3	0.05801178
16	0xbdbaa5bd	-0.09113643
17	0x3d61a262	0.0550865
18	0xbdb1cfbb	-0.086821996
19	0x3d630c75	0.0554318
20	0x3db160e4	0.086610585
21	0xbdb3e186	-0.087832496
22	0xbdb564f0	-0.08857143
23	0xbdb6e080	-0.08929539
24	0xbdb330ee	-0.08749567
25	0x3d71a890	0.058998644
26	0x3db5924f	0.08865797
27	0x3db28463	0.08716657
28	0xbdb8c151	-0.09021247
29	0xbdb678c0	-0.0890975
30	0x3d6fc85f	0.0585407
31	0xbdb94565	-0.09046439
32	0xbdb5d407	-0.08878332
33	0x3dbab9be	0.09117459
34	0x3d5788d7	0.052620735
35	0xbdb4476a	-0.08802684
36	0xbdb6e2b4	-0.08929959
37	0xbdaf64a5	-0.08564118
38	0xbdab0f40	-0.08352518
39	0x3db99548	0.09061676
40	0x3db7daf6	0.0897731
41	0x3db1ece8	0.086877644
42	0xbd65d731	-0.056113426
43	0xbdb4f352	-0.08835472
44	0x3db28a8d	0.08717833
45	0xbd589b3c	-0.052882418
46	0xbdaeb002	-0.085296646
47	0xbdb3e73f	-0.08784341
48	0xbdb9a6eb	-0.0906504
49	0x3d69ebb9	0.05710957

ode_f.f.6.weight f4 [10, 50]
0	0xbe925ec0	-0.28587914
1	0x3e90fec2	0.28319365
2	0x3e920b9e	0.28524488
3	0x3e919097	0.28430626
4	0xbe921bb1	-0.28536752
5	0x3e920db8	0.28526092
6	0xbe901a9b	-0.28145298
7	0xbe91ad0e	-0.28452343
8	0xbe90ec4e	-0.28305286
9	0x3e91e510	0.28495073
10	0xbe9233f5	-0.28555265
11	0xbe9159c8	-0.2838881
12	0xbe91b095	-0.28455034
13	0xbe9160f5	-0.28394285
14	0x3e92713d	0.2860202
15	0x3e913ba4	0.28365815
16	0xbe9252ba	-0.2857874
17	0x3e909381	0.28237537
18	0xbe915253	-0.2838312
19	0x3e912482	0.28348166
20	0x3e91c6a1	0.28471854
21	0xbe922af6	-0.28548402
22	0xbe9167e0	-0.28399563
23	0xbe910603	-0.283249
24	0xbe916692	-0.28398567
25	0x3e9055fd	0.28190604
26	0x3e91592f	0.28388354
27	0x3e91fe16	0.28514165
28	0xbe91eb04	-0.28499615
29	0xbe91113d	-0.28333464
30	0x3e9213ad	0.28530636
31	0xbe912af7	-0.28353092
32	0xbe9269ad	-0.2859625
33	0x3e91d01e	0.28479093
34	0x3e8fdd1a	0.28098375
35	0xbe91cae0	-0.28475094
36	0xbe923e0d	-0.28562966
37	0xbe919ad6	-0.28438443
38	0xbe9117f3	-0.28338584
39	0x3e91beb6	0.28465813
40	0x3e92537b	0.28579316
41	0x3e90e5c6	0.28300303
42	0xbe914607	-0.2837374
43	0xbe920dec	-0.28526247
44	0x3e91d606	0.284836
45	0xbe914812	-0.28375298
46	0xbe914d71	-0.28379396
47	0xbe9152dc	-0.2838353
48	0xbe919518	-0.28434062
49	0x3e90e373	0.2829853
50	0xbe601678	-0.21883571
51	0x3e5cfd57	0.21581016
52	0x3e6b35a6	0.22969684
53	0x3e5f8c85	0.21830948
54	0xbe600f7a	-0.21880904
55	0x3e5cb440	0.21553135
56	0xbe661835	-0.22470172
57	0xbe5d5dc9	-0.21617807
58	0xbe684157	-0.22681175
59	0x3e68d0a5	0.22735842
60	0xbe5f5979	-0.21811475
61	0xbe688183	-0.22705655
62	0xbe6a607d	-0.2288837
63	0xbe5fd873	-0.21859913
64	0x3e601b3f	0.21885394
65	0x3e67d3b9	0.2263936
66	0xbe60c69a	-0.2195076
67	0x3e65ce2a	0.22441927
68	0xbe5e7f8a	-0.2172834
69	0x3e67fc4f	0.22654842
70	0x3e61bd4c	0.22044867
71	0xbe6037a6	-0.21896228
72	0xbe5e4d1c	-0.21709102
73	0xbe5d7adb	-0.21628897
74	0xbe5e383a	-0.21701136
75	0x3e64c72c	0.22341603
76	0x3e5dedcf	0.21672748
77	0x3e60b2e1	0.21943237
78	0xbe5f01de	-0.21778056
79	0xbe5c2be1	-0.21501113
80	0x3e68c2ae	0.22730514
81	0xbe5b8a25	-0.21439417
82	0xbe60fb27	-0.21970807
83	0x3e5e49de	0.21707866
84	0x3e62e02f	0.22155832
85	0xbe5d5479	-0.21614255
86	0xbe5ff340	-0.21870136
87	0xbe5e69aa	-0.21719995
88	0xbe5c1d0a	-0.21495453
89	0x3e5d4c3f	0.21611117
90	0x3e608d1a	0.21928826
91	0x3e5d9eb4	0.21642572
92	0xbe669ced	-0.225208
93	0xbe5fef30	-0.21868587
94	0x3e5f5f52	0.21813706
95	0xbe67d010	-0.22637963
96	0xbe5c00a0	-0.21484613
97	0xbe5dc0c2	-0.21655563
98	0xbe5dab62	-0.21647409
99	0x3e67b24c	0.22626609
100	0xbe924f01	-0.285759
101	0x3e90ef26	0.28307456
102	0x3e91fc73	0.28512916
103	0x3e9180c9	0.28418568
104	0xbe920bd6	-0.28524655
105	0x3e91fe22	0.285142
106	0xbe900bc5	-0.2813398
107	0xbe919d67	-0.284404
108	0xbe90dd29	-0.28293732
109	0x3e91d5d1	0.2848344
110	0xbe922428	-0.2854321
111	0xbe914aa0	-0.28377247
112	0xbe91a199	-0.28443602
113	0xbe915153	-0.28382358
114	0x3e926197	0.2859008
115	0x3e912c87	0.28354284
116	0xbe92430d	-0.2856678
117	0x3e908460	0.28225994
118	0xbe91429a	-0.28371125
119	0x3e911598	0.28336787
120	0x3e91b6f7	0.28459904
121	0xbe921b21	-0.28536323
122	0xbe915834	-0.28387606
123	0xbe90f691	-0.28313115
124	0xbe915684	-0.2838632
125	0x3e904722	0.2817927
126	0x3e914966	0.2837631
127	0x3e91ee35	0.2850205
128	0xbe91db17	-0.28487465
129	0xbe910161	-0.28321365
130	0x3e9204a6	0.2851917
131	0xbe911b89	-0.2834132
132	0xbe9259f3	-0.2858425
133	0x3e91c07a	0.2846716
134	0x3e8fce2c	0.28086984
135	0xbe91bb1c	-0.28463066
136	0xbe922e97	-0.2855117
137	0xbe918afc	-0.2842635
138	0xbe9107ef	-0.28326365
139	0x3e91af51	0.28454068
140	0x3e9243c9	0.2856734
141	0x3e90d5f5	0.28288236
142	0xbe9136bd	-0.28362074
143	0xbe91fdf7	-0.28514072
144	0x3e91c677	0.2847173
145	0xbe913935	-0.28363958
146	0xbe913dce	-0.28367466
147	0xbe91430f	-0.28371474
148	0xbe91855e	-0.28422064
149	0x3e90d479	0.28287104
150	0xbe918151	-0.28418973
151	0x3e901edd	0.28148547
152	0x3e9111fe	0.2833404
153	0x3e90b58b	0.28263506
154	0xbe9135d9	-0.28361395
155	0x3e9130d0	0.28357553
156	0xbe8f1e09	-0.27952603
157	0xbe90d196	-0.282849
158	0xbe8ff2f4	-0.28115046
159	0x3e90e63d	0.28300658
160	0xbe915473	-0.28384742
161	0xbe9061bc	-0.28199565
162	0xbe90b479	-0.2826269
163	0xbe9082af	-0.28224704
164	0x3e919839	0.2843645
165	0x3e90437a	0.2817648
166	0xbe91782e	-0.28412002
167	0x3e8f9620	0.28044224
168	0xbe9070d8	-0.28211093
169	0x3e902eda	0.28160745
170	0x3e90e66c	0.28300798
171	0xbe9149fe	-0.28376764
172	0xbe90875a	-0.28228265
173	0xbe902d0d	-0.2815937
174	0xbe907eec	-0.28221834
175	0x3e8f6439	0.2800615
176	0x3e9079a9	0.2821782
177	0x3e911681	0.28337482
178	0xbe910c3f	-0.28329656
179	0xbe9033ec	-0.28164613
180	0x3e911ba3	0.28341398
181	0xbe9054b2	-0.28189617
182	0xbe918cea	-0.2842782
183	0x3e90f8f7	0.28314945
184	0x3e8ede1a	0.27903825
185	0xbe90e8b6	-0.28302544
186	0xbe916893	-0.28400096
187	0xbe90b3db	-0.2826222
188	0xbe902b53	-0.28158054
189	0x3e90e9ee	0.28303474
190	0x3e9177ee	0.28411812
191	0x3e90013d	0.28125945
192	0xbe9044d1	-0.28177503
193	0xbe9125d9	-0.28349188
194	0x3e90f700	0.28313446
195	0xbe904c7b	-0.2818335
196	0xbe906e95	-0.28209367
197	0xbe907449	-0.2821372
198	0xbe90bb28	-0.2826779
199	0x3e8fecf0	0.28110456
200	0xbe6aab3d	-0.22916885
201	0x3e67b409	0.22627272
202	0x3e6fb136	0.23407444
203	0x3e69f4f9	0.22847356
204	0xbe6a1347	-0.22858916
205	0x3e6a5393	0.22883444
206	0xbe6c318d	-0.23065777
207	0xbe697012	-0.22796658
208	0xbe6f12f4	-0.23347074
209	0x3e706bcd	0.23478623
210	0xbe6bbf53	-0.23022203
211	0xbe6e8f36	-0.23296818
212	0xbe6ec78e	-0.23318312
213	0xbe69b974	-0.22824651
214	0x3e6c4d60	0.23076391
215	0x3e6e1424	0.2324987
216	0xbe6bc27a	-0.23023406
217	0x3e6e400e	0.23266622
218	0xbe68be85	-0.22728927
219	0x3e6f796b	0.23386161
220	0x3e69ce7d	0.22832675
221	0xbe6adba6	-0.22935352
222	0xbe697a4c	-0.22800559
223	0xbe69b942	-0.22824576
224	0xbe687b0b	-0.22703187
225	0x3e6e39a4	0.23264176
226	0x3e69da4f	0.22837184
227	0x3e695d4a	0.22789493
228	0xbe6a5d83	-0.22887234
229	0xbe68ca9d	-0.22733541
230	0x3e6ff406	0.23432931
231	0xbe685bfd	-0.2269134
232	0xbe6ad9eb	-0.22934692
233	0x3e6aab8c	0.22917002
234	0x3e6b5ae0	0.22983885
235	0xbe695565	-0.22786482
236	0xbe6ab2c3	-0.22919755
237	0xbe67dd6e	-0.22643062
238	0xbe6796a3	-0.22616057
239	0x3e6a13fc	0.22859186
240	0x3e6b2271	0.22962357
241	0x3e679dc2	0.22618774
242	0xbe6dc1ad	-0.23218413
243	0xbe6ad6be	-0.2293348
244	0x3e693037	0.22772299
245	0xbe6e6765	-0.2328163
246	0xbe686cae	-0.22697708
247	0xbe694a6d	-0.22782297
248	0xbe6a2792	-0.22866657
249	0x3e6ebab2	0.23313406
250	0xbe925508	-0.285805
251	0x3e90f52e	0.28312057
252	0x3e920246	0.2851736
253	0x3e9186e9	0.2842324
254	0xbe9211e6	-0.2852928
255	0x3e92040f	0.2851872

ode_f.f.6.bias f4 [10]
0	0x3ea5fada	0.32417947
1	0x3e343147	0.17596923
2	0x3ea5e5f6	0.3240201
3	0x3ea8303b	0.32849297
4	0x3e700d1b	0.234425
5	0x3ea5ec6c	0.32406938
6	0x3ea5ef87	0.32409307
7	0x3ea5ef32	0.32409054
8	0x3eaad00f	0.3336186
9	0x3ea5da69	0.32393196

encoder_map.ffnn.0.weight f4 [50, 1]
0	0xbdd732ea	-0.10507758
1	0xbdc99fe0	-0.09844947
2	0xbdc5735c	-0.09641144
3	0x3ddea7d1	0.10871852
4	0xbdee2b14	-0.1162931
5	0x3dc3d5fc	0.09562299
6	0x3ddc3c83	0.10753729
7	0xbdcff398	-0.10153884
8	0x3de81051	0.11331237
9	0x3dd4b5b6	0.10386221
10	0xbdc7e3d1	-0.097602494
11	0xbde28b3c	-0.11061713
12	0x3dc8a198	0.097964466
13	0xbdfe41f1	-0.12414921
14	0x3dcfae48	0.101406634
15	0xbdee3b8d	-0.11632452
16	0xbdcf2f92	-0.10116495
17	0xbde994c7	-0.1140533
18	0x3db0a29d	0.08624766
19	0xbdd1ea6a	-0.10249789
20	0xbdeba7fc	-0.1150665
21	0x3dd325be	0.10309933
22	0x3db97191	0.09054864
23	0xbddf193f	-0.10893487
24	0xbdc502f2	-0.096197024
25	0x3dc46579	0.09589667
26	0xbdcb9769	-0.099409886
27	0x3dd49fa4	0.103820115
28	0x3ddf8e55	0.109158196
29	0x3de9ee5c	0.114224166
30	0x3dda5bff	0.10662078
31	0x3dcb0c65	0.099144734
32	0xbddecfa2	-0.108794466
33	0x3dd91fd4	0.10601774
34	0xbdc87275	-0.09787456
35	0xbdd130c7	-0.10214382
36	0xbe009f89	-0.12560858
37	0x3dec9e88	0.11553675
38	0xbddc3c94	-0.10753742
39	0xbdee2b5c	-0.11629364
40	0xbdcf171f	-0.10111832
41	0x3dd82818	0.10554522
42	0x3dd6a305	0.10480312
43	0x3dbeefca	0.0932308
44	0x3de94f15	0.11392037
45	0xbdf186fd	-0.11793325
46	0x3de96c85	0.113976516
47	0x3dda51f2	0.10660161
48	0x3da938e1	0.08262802
49	0x3de172e0	0.11008239

encoder_map.ffnn.0.bias f4 [50]
0	0xbe08fc7d	-0.13377567
1	0xbe06177f	-0.130949
2	0xbe04cef4	-0.12969571
3	0x3e10bf99	0.14135589
4	0xbe1b9e53	-0.15197115
5	0x3e043ddc	0.12914222
6	0x3e0f8061	0.14013816
7	0xbe03ffc9	-0.12890543
8	0x3e1579e9	0.14597286
9	0x3e092848	0.13394272
10	0xbe02b76d	-0.12765284
11	0xbe102f4d	-0.14080544
12	0x3e04e490	0.12977815
13	0xbe1fb5c6	-0.15596685
14	0x3e0725a5	0.13197954
15	0xbe198d8a	-0.14995399
16	0xbe06b9d9	-0.13156833
17	0xbe160da3	-0.1465364
18	0x3dea914e	0.11453496
19	0xbe09cc0b	-0.13456742
20	0xbe11dacb	-0.14243619
21	0x3e096b62	0.1341987
22	0x3df121c0	0.117740154
23	0xbe121a7f	-0.1426792
24	0xbe02d4d2	-0.12776497
25	0x3dfeb08c	0.124360174
26	0xbe0532fa	-0.13007727
27	0x3e0a1e5e	0.13488147
28	0x3e1511c9	0.14557566
29	0x3e1431ae	0.14472076
30	0x3e0d16de	0.13778254
31	0x3e026537	0.12733923
32	0xbe131c91	-0.14366366
33	0x3e0d15ef	0.13777898
34	0xbe032977	-0.12808786
35	0xbe09f66c	-0.13472909
36	0xbe23adab	-0.15984218
37	0x3e1a1450	0.15046811
38	0xbe0b7da7	-0.13622151
39	0xbe164813	-0.14675932
40	0xbe07f9e1	-0.13278915
41	0x3e0bdf7b	0.1365947
42	0x3e08c998	0.13358152
43	0x3dfde0e8	0.12396413
44	0x3e16a73f	0.14712237
45	0xbe19a9b7	-0.15006147
46	0x3e17fb9e	0.14842078
47	0x3e1240d7	0.14282547
48	0x3de39182	0.11111738
49	0x3e14832d	0.14503165

encoder_map.ffnn.3.weight f4 [50, 50]
0	0x3ca57e89	0.020201938
1	0x3cab9c1c	0.020948462
2	0x3cadd054	0.021217503
3	0xbccaf489	-0.024774807
4	0x3ccc1968	0.024914458
5	0xbc992c3a	-0.018697847
6	0xbcb6f6fb	-0.022334566
7	0x3caa04ce	0.020754244
8	0xbcc34b6c	-0.023839675
9	0xbcad0868	-0.021122172
10	0x3cb00c3e	0.021490213
11	0x3cdd01da	0.026978422
12	0xbca35dbf	-0.019942163
13	0x3ce29849	0.027660506
14	0xbcb05919	-0.02152686
15	0x3cc63cc4	0.024198897
16	0x3cb214c6	0.021738421
17	0x3cb76b29	0.022389965
18	0xbc721498	-0.014775418
19	0x3cc1c1f7	0.02365206
20	0x3ccb8a8a	0.024846334
21	0xbcbb47d3	-0.022861397
22	0xbcb243d3	-0.021760857
23	0x3ccfabaf	0.02535042
24	0x3cb052a9	0.02152379
25	0xbcab8d61	-0.020941438
26	0x3c8a475e	0.016879734
27	0xbcab8c2c	-0.020940863
28	0xbca5bc55	-0.020231405
29	0xbcad6d7a	-0.021170367
30	0xbcada31f	-0.021195946
31	0xbc969389	-0.018380897
32	0x3c9638ff	0.018337725
33	0xbcbba052	-0.022903595
34	0x3c987055	0.018608252
35	0x3ca17295	0.019707957
36	0x3cd5ac74	0.026083209
37	0xbcd9021c	-0.026490264
38	0x3cb2c4cc	0.021822356
39	0x3cf156b1	0.029460283
40	0x3cb40a98	0.021977708
41	0xbc96ce49	-0.018408911
42	0xbcc95cc5	-0.024580369
43	0xbcb248a7	-0.021763159
44	0xbcb54df9	-0.022131907
45	0x3cb54557	0.02212779
46	0xbcdf0698	-0.027224824
47	0xbcbd7b8d	-0.023130203
48	0xbc648f6e	-0.013950212
49	0xbcaead1e	-0.021322783
50	0xbca7bfec	-0.020477258
51	0xbcbce882	-0.023060087
52	0xbcc2b027	-0.023765637
53	0x3cecdf50	0.028915077
54	0xbcfa4db3	-0.030554628
55	0x3cba8f9d	0.022773558
56	0x3cc65072	0.024208281
57	0xbcac1011	-0.021003755
58	0x3ceff1a8	0.029290035
59	0x3cab6d2d	0.020926083
60	0xbc9da7e0	-0.019245088
61	0xbcd5b1b8	-0.02608572
62	0x3cc0147c	0.023447268
63	0xbcda931b	-0.026681473
64	0x3ce15aaf	0.027509062
65	0xbcdc8ec8	-0.026923552
66	0xbc888492	-0.016664777
67	0xbcca28b6	-0.024677616
68	0x3c93de4d	0.018050337
69	0xbcaa933e	-0.020822164
70	0xbcd80271	-0.026368352
71	0x3c9ee139	0.019394504
72	0x3cbc569c	0.022990517
73	0xbcd94767	-0.026523305
74	0xbcb0aa85	-0.021565685
75	0x3cb178c2	0.021664027
76	0xbc8728ea	-0.016499002
77	0x3cbd5397	0.023111148
78	0x3cb99f0f	0.022658853
79	0x3cb9dee1	0.022689285
80	0x3ccd6fc1	0.025077702
81	0x3cbacc0b	0.022802373
82	0xbcb5f153	-0.022209799
83	0x3cc1ddc3	0.023665315
84	0xbc945de4	-0.018111177
85	0xbc9d572b	-0.019206604
86	0xbd01be41	-0.03167558
87	0x3ce79dc3	0.028273469
88	0xbcc3ea16	-0.023915332
89	0xbceff50b	-0.02929165
90	0xbcca0ee2	-0.0246653
91	0x3cbd222b	0.023087582
92	0x3cefadec	0.029257737
93	0x3cb14ab6	0.02164207
94	0x3cd21ae3	0.025647586
95	0xbcb064c7	-0.02153243
96	0x3cd39373	0.025827145
97	0x3cbae4fb	0.022814265
98	0x3c965034	0.01834879
99	0x3cca28f4	0.024677731
100	0xbce60938	-0.028080568
101	0xbce6b2b9	-0.028161393
102	0xbce9faae	-0.028561916
103	0x3d0acff9	0.033889744
104	0xbd0bb73f	-0.034110304
105	0x3cfbfb44	0.030759461
106	0x3ce57db0	0.028014034
107	0xbce5a3f1	-0.028032275
108	0x3d0da66a	0.034582533
109	0x3cc24bfa	0.02371787
110	0xbce261d8	-0.027634546
111	0xbd027fdd	-0.03186022
112	0x3cdf33cd	0.02724638
113	0xbd0a14be	-0.033711188
114	0x3ce6c2c9	0.028169053
115	0xbd0d2e13	-0.034467768
116	0xbcd4ab2b	-0.025960525
117	0xbcf0b13e	-0.02938139
118	0x3cc2a45a	0.02376001
119	0xbcdfed58	-0.027334854
120	0xbcfb10c2	-0.03064764
121	0x3cd11a52	0.025525246
122	0x3cda2662	0.02662963
123	0xbce973f8	-0.028497681
124	0xbcbe49b4	-0.023228504
125	0x3cb3b8f9	0.021938788
126	0xbcd1d3e7	-0.025613738
127	0x3cdd7c44	0.027036794
128	0x3cbada07	0.022809042
129	0x3d0609b2	0.03272409
130	0x3cefac8a	0.029257078
131	0x3cc45d87	0.023970379
132	0xbce98362	-0.028505031
133	0x3cfb1f28	0.030654505
134	0xbcc3b6ff	-0.02389097
135	0xbcd42710	-0.025897533
136	0xbd283541	-0.041066412
137	0x3d0e7a46	0.034784578
138	0xbcddb07b	-0.027061692
139	0xbd119aca	-0.03554801
140	0xbcde7992	-0.027157579
141	0x3ce2c7a4	0.027683087
142	0x3cf4695e	0.0298354
143	0x3cc18fd7	0.023628158
144	0x3cf0a746	0.029376637
145	0xbcfe6c96	-0.031057637
146	0x3cf48513	0.029848611
147	0x3cf7a4dc	0.030229978
148	0x3cb546f9	0.022128569
149	0x3cf36486	0.02971102
150	0xbcd92a26	-0.026509356
151	0xbcd72288	-0.026261583
152	0xbce4dc86	-0.027937185
153	0x3d167a6d	0.036737848
154	0xbd0bf552	-0.034169503
155	0x3ce68c23	0.028142994
156	0x3d01d107	0.031693485
157	0xbcdb08e0	-0.02673763
158	0x3d127d8d	0.035764266
159	0x3cc80850	0.024418026
160	0xbcebcfae	-0.028785553
161	0xbd17daab	-0.037073772
162	0x3cd6b4cc	0.026209258
163	0xbd0ec3a9	-0.034854565
164	0x3d064f3d	0.03279041
165	0xbd06f288	-0.03294614
166	0xbcd49365	-0.02594919
167	0xbd08da55	-0.033411343
168	0x3cd9a4d2	0.02656785
169	0xbcf19d8c	-0.02949407
170	0xbd01bb3e	-0.03167271
171	0x3cdd44ef	0.02701041
172	0x3cf3823a	0.029725183
173	0xbce5d317	-0.028054757
174	0xbcdbf79c	-0.026851468
175	0x3cd5f178	0.026116118
176	0xbcc48763	-0.023990339
177	0x3cf176d0	0.0294756
178	0x3ce361a9	0.027756529
179	0x3d0166df	0.031592246
180	0x3cd0b718	0.02547793
181	0x3cf0b13d	0.029381389
182	0xbcf3f74f	-0.029781012
183	0x3cf0c327	0.02938993
184	0xbcddd5de	-0.027079519
185	0xbcc632c0	-0.024194121
186	0xbd1f829e	-0.038942926
187	0x3d1a3535	0.0376484
188	0xbd03cf13	-0.032179903
189	0xbd170afb	-0.036875706
190	0xbce78ed6	-0.028266352
191	0x3d090117	0.033448305
192	0x3d05ddac	0.032682106
193	0x3cdf103f	0.027229426
194	0x3d03d2d8	0.0321835
195	0xbcf3e906	-0.0297742
196	0x3d0331e3	0.032029998
197	0x3ce0933e	0.02741396
198	0x3cbd1525	0.023081372
199	0x3d0a20ff	0.033722874
200	0x3cb70e9b	0.022345832
201	0x3ca1b6d4	0.0197405
202	0x3cc1d464	0.023660846
203	0xbcee455e	-0.029085811
204	0x3ceeee19	0.029166268
205	0xbcb15ded	-0.021651233
206	0xbce4eb95	-0.027944366
207	0x3cacc88c	0.021091722
208	0xbcc8de3d	-0.024520034
209	0xbc875bc7	-0.016523255
210	0x3ca10e73	0.01966021
211	0x3ced8ee9	0.028998809
212	0xbc90fb21	-0.017697873
213	0x3ce11ff6	0.02748106
214	0xbcd21c87	-0.025648369
215	0x3cdb5a53	0.026776468
216	0x3c9469f6	0.018116932
217	0x3ce1fa91	0.0275853
218	0xbc893253	-0.01674763
219	0x3cd02257	0.025407
220	0x3cc53226	0.024071764
221	0xbc9e3cc9	-0.019316094
222	0xbcb442ab	-0.022004446
223	0x3cc6f049	0.024284499
224	0x3cc3b500	0.023890018
225	0xbcac39ca	-0.02102365
226	0x3cbad70a	0.022807617
227	0xbcc924ac	-0.02455362
228	0xbcba237a	-0.022721995
229	0xbcc81fbd	-0.024429196
230	0xbcb1a5f9	-0.021685587
231	0xbca27603	-0.019831663
232	0x3cd52ab6	0.026021343
233	0xbcc0c929	-0.02353342
234	0x3c8f864e	0.017520096
235	0x3ca06a31	0.019581886
236	0x3d09b77c	0.03362225
237	0xbd05d489	-0.032673392
238	0x3ccd3a88	0.025052324
239	0x3cf9a349	0.030473368
240	0x3cbd6b1b	0.02312236
241	0xbcd28ddf	-0.025702415
242	0xbce6c14e	-0.028168347
243	0xbca4988c	-0.020092271
244	0xbce2049c	-0.027590089
245	0x3cc181a5	0.02362139
246	0xbce31b92	-0.027723107
247	0xbcae36c5	-0.02126635
248	0xbc8af690	-0.016963273
249	0xbce22cc1	-0.027609231
250	0xbca88e47	-0.020575656
251	0xbcc3df4e	-0.02391019
252	0xbcc0b292	-0.023522649
253	0x3d03340e	0.032032065
254	0xbce13bdc	-0.027494363
255	0x3caec033	0.021331882

encoder_map.ffnn.3.bias f4 [50]
0	0xbe798abe	-0.24369332
1	0x3e527a9f	0.20554589
2	0x3e59c9b8	0.21268356
3	0x3e62daa4	0.22153717
4	0xbe4f60d5	-0.20251782
5	0x3e6c551c	0.23079342
6	0xbe63e60c	-0.22255725
7	0x3e5dc1cd	0.2165596
8	0x3e68349b	0.22676317
9	0x3e6cb73a	0.2311677
10	0xbe5827f0	-0.21108985
11	0xbe62ddd7	-0.22154938
12	0xbe63c91c	-0.22244686
13	0x3e678637	0.22609793
14	0x3e67855e	0.2260947
15	0x3e4dc57b	0.20094864
16	0xbe7e170b	-0.24813478
17	0xbe5f3802	-0.21798709
18	0xbe53e05b	-0.20691054
19	0x3e5e2564	0.21693951
20	0xbe513a0c	-0.204323
21	0xbe5d573b	-0.21615307
22	0xbe4cd9b2	-0.20004919
23	0x3e5aadd6	0.21355376
24	0xbe61cf35	-0.220517
25	0x3e67b354	0.22627002
26	0xbe65fa62	-0.22458795
27	0x3e60d301	0.21955492
28	0xbe576fd6	-0.21038756
29	0xbe5fb3cc	-0.21845931
30	0x3e570b88	0.21000493
31	0xbe5d1929	-0.21591629
32	0xbe5eb5ee	-0.21749088
33	0x3e5b4fc5	0.21417148
34	0x3e58d54c	0.21175116
35	0x3e5f5328	0.21809065
36	0xbe5c4593	-0.21510915
37	0x3e5d5a83	0.21616559
38	0xbe626829	-0.22110046
39	0xbe4ca11d	-0.19983335
40	0xbe5969bf	-0.21231745
41	0xbe67b5be	-0.22627923
42	0x3e58a595	0.21156915
43	0x3e646d61	0.2230735
44	0x3e670945	0.2256213
45	0xbe6a179c	-0.22860569
46	0xbe56ec12	-0.20988491
47	0x3e5f476a	0.21804586
48	0x3e5ea3d8	0.21742189
49	0x3e4f3d38	0.20238197

encoder_map.ffnn.6.weight f4 [10, 50]
0	0xbe0f1758	-0.13973749
1	0x3d98b7db	0.07456943
2	0xbc5957e1	-0.013265581
3	0x3d3f24d5	0.046665985
4	0xbd4851f4	-0.04890628
5	0x3db2b79e	0.087264284
6	0xbdc149f1	-0.09437931
7	0x3c9b0cef	0.018927066
8	0x3e3c56c3	0.18392472
9	0x3dd2bc51	0.10289825
10	0xbd840409	-0.06446082
11	0xbde47435	-0.11154977
12	0xbda7dae2	-0.081960455
13	0x3d6a8914	0.057259634
14	0x3d112010	0.035430968
15	0x3d3179e4	0.043329135
16	0xbe2b2e45	-0.16716869
17	0xbe0d3d66	-0.13792953
18	0xbe0cde31	-0.13756634
19	0x3daeb101	0.085298546
20	0xbd80c5c3	-0.0628772
21	0xbd9ee0a1	-0.07757688
22	0xbd9eafcd	-0.07748375
23	0xbcbbf9ef	-0.022946326
24	0xbce34221	-0.027741494
25	0x3dfe2547	0.12409454
26	0xbbaa839b	-0.005203677
27	0x3db2c47a	0.08728881
28	0xbcb9f264	-0.022698589
29	0xbe25b441	-0.16182043
30	0x3ce7e44b	0.0283071
31	0xbcad0196	-0.02111892
32	0xbd47f60a	-0.048818626
33	0xb83e4c8c	-4.537082e-05
34	0x3cb237d1	0.021755131
35	0x3d5a4624	0.053289548
36	0xbd7c082a	-0.061531223
37	0xbbef2476	-0.0072980477
38	0xbd3c3d96	-0.04595717
39	0xbd4002fc	-0.046877846
40	0xbdeddb9d	-0.116141535
41	0xbd58badc	-0.052912578
42	0xbc8bc518	-0.017061755
43	0xbd919d25	-0.07110051
44	0x3d025dc3	0.0318277
45	0xbe1e60bb	-0.15466587
46	0xbd74bcd7	-0.059750404
47	0x3d1ebcf3	0.038754415
48	0x3da1be6a	0.07897647
49	0x3d9fe4b2	0.07807292
50	0x3e789b6f	0.24278043
51	0xbe47a116	-0.19495043
52	0xbe654c6d	-0.22392435
53	0xbe544c94	-0.20732337
54	0x3e3b5ab1	0.18296315
55	0xbe82d599	-0.25553587
56	0x3e5320fa	0.20618048
57	0xbe5a0088	-0.21289265
58	0xbe641366	-0.22273025
59	0xbe68a562	-0.22719339
60	0x3e55ddf0	0.20885444
61	0x3e4dbf25	0.20092447
62	0x3e5314eb	0.20613448
63	0xbe55a9cf	-0.20865558
64	0xbe6adbc7	-0.22935401
65	0xbe207807	-0.15670787
66	0x3e830291	0.25587896
67	0x3e42ac7c	0.1901111
68	0x3e6f2921	0.23355533
69	0xbe5f0631	-0.21779706
70	0x3e34f16d	0.17670222
71	0x3e708920	0.23489809
72	0x3e4b1110	0.19830728
73	0xbe4e1bfd	-0.20127864
74	0x3e5c2973	0.21500187
75	0xbe50d826	-0.20394954
76	0x3e72571a	0.23666039
77	0xbe5ea2b0	-0.21741748
78	0x3e4e7ba6	0.20164356
79	0x3e613fb6	0.2199696
80	0xbe5f694a	-0.21817508
81	0x3e3a09d6	0.18167815
82	0x3e4c33d2	0.19941643
83	0xbe80d37f	-0.2516136
84	0xbe5351e6	-0.2063671
85	0xbe459d07	-0.19298182
86	0x3e41dcbe	0.18931863
87	0xbe52aa28	-0.20572722
88	0x3e5480b6	0.20752224
89	0x3e2eaefc	0.17058939
90	0x3e49c9a1	0.19705822
91	0x3e532237	0.2061852
92	0xbe3df348	-0.18549836
93	0xbe5b81d2	-0.21436241
94	0xbe411743	-0.1885653
95	0x3e6b7175	0.22992499
96	0x3e5d4f10	0.21612191
97	0xbe50f3c1	-0.20405485
98	0xbe42d4c5	-0.19026478
99	0xbe69f87c	-0.22848696
100	0x3c75ef1e	0.015010623
101	0x3d351c59	0.044216488
102	0x3db51b7c	0.08843133
103	0x3d69acbf	0.05704951
104	0xbce92a32	-0.028462503
105	0x3e33cf1e	0.17559478
106	0xbc5456a8	-0.012960114
107	0x3c6e6141	0.014549554
108	0x3e15b685	0.14620407
109	0x3db0255e	0.08600877
110	0xbd5e5fe1	-0.054290656
111	0x3dbacb6d	0.09120832
112	0xbd9cd25a	-0.07657309
113	0xbc27ce05	-0.01024199
114	0x3ce3f225	0.027825424
115	0x3d3528bb	0.044228297
116	0x3b875ed0	0.0041311756
117	0xbd91eec4	-0.07125619
118	0xbd528632	-0.05139751
119	0x3d907b37	0.07054751
120	0xbd1d4d1f	-0.038403627
121	0xbcf1baeb	-0.029508075
122	0xbd8391b5	-0.06424276
123	0x3d7cbb2d	0.061701942
124	0x3c609628	0.013707675
125	0x3e0027aa	0.1251513
126	0xbe6b30d8	-0.22967851
127	0x3d91b5a8	0.07114726
128	0xbc0e3721	-0.008680136
129	0xb96ef44c	-0.00022788456
130	0x3e18723b	0.14887325
131	0xbe000d39	-0.12505044
132	0xbd0f7b8f	-0.035029944
133	0x3d41fa52	0.047357865
134	0x3d997245	0.07492498
135	0x3d3abdf0	0.045591295
136	0xbcdfd10c	-0.027321361
137	0x3d95d208	0.07315451
138	0xbde7e4b6	-0.1132292
139	0xbd5931bf	-0.053025957
140	0x3b7312bb	0.0037090022
141	0xbdb991c0	-0.09061003
142	0x3d26f78c	0.040763423
143	0x3c9f0645	0.01941217
144	0x3d26f418	0.04076013
145	0xbe1ea526	-0.15492687
146	0xbd8eff80	-0.069823265
147	0x3d520ee1	0.05128372
148	0x3cf468e3	0.02983517
149	0xbc8d24ed	-0.017229522
150	0x3cd5bb19	0.026090192
151	0x3d25223f	0.040315863
152	0x3cdaa71e	0.026691016
153	0xbcb32e54	-0.021872677
154	0xbc601828	-0.013677634
155	0xbe12f31f	-0.14350556
156	0x3d68b5b7	0.05681392
157	0xbd099c1f	-0.033596154
158	0x3d4183ab	0.04724471
159	0xbd3b3b02	-0.04571057
160	0xbc256322	-0.010094436
161	0x3d2c7b70	0.042109907
162	0xbcb1f7e4	-0.021724649
163	0xbc95d828	-0.018291548
164	0x3d12e1f1	0.035860006
165	0x3cd38fa2	0.025825325
166	0x3e1664d7	0.14686905
167	0x3a06a76a	0.0005136641
168	0x3c8adb54	0.016950287
169	0x3de37217	0.11105745
170	0xbd1f320a	-0.03886608
171	0x3d5ebbf3	0.05437846
172	0xbb0ba05b	-0.0021305296
173	0x3d47b612	0.04875762
174	0xbe15fc1a	-0.1464695
175	0x3d12b3c9	0.035815988
176	0x3c9eb2a5	0.019372294
177	0x3d5c84c3	0.05383755
178	0xbbad6213	-0.0052912324
179	0x3da0c7b1	0.07850588
180	0x3d416811	0.047218386
181	0xbddf646b	-0.10907825
182	0xbd52a05c	-0.051422462
183	0x3dcf4c18	0.101219356
184	0x3b82b574	0.003988916
185	0x3cbdecdd	0.023184234
186	0xbd3d0828	-0.046150357
187	0x3db26d01	0.08712197
188	0xbdb7bbab	-0.08971342
189	0xbc71e1c1	-0.014763297
190	0x3c829bcd	0.015943432
191	0xbce40ff1	-0.027839633
192	0xbd9e5f19	-0.07732982
193	0xbd466454	-0.048435524
194	0x3d460cba	0.04835198
195	0x3c97bbbd	0.018522138
196	0xbc62167e	-0.013799308
197	0x3d3eb34e	0.046557717
198	0x3ca06848	0.019580975
199	0xbd0d3234	-0.034471706
200	0x3e2a4bea	0.16630521
201	0xbdc7d240	-0.09756899
202	0xbd97bcac	-0.07409033
203	0xbddf4e25	-0.10903577
204	0x3dcd79f7	0.100330286
205	0xbddd59eb	-0.10808166
206	0x3e017f7b	0.12646286
207	0xbde1eb9c	-0.11031267
208	0xbdf53573	-0.11973085
209	0xbdefcb79	-0.11708731
210	0x3db846cb	0.08997878
211	0x3e03518a	0.12824073
212	0x3dd6b9af	0.10484635
213	0xbdd0b34c	-0.10190448
214	0xbdd0bff4	-0.10192862
215	0xbde311c9	-0.110873766
216	0x3e324f68	0.17413104
217	0x3e1316ee	0.14364216
218	0x3d89a22b	0.06720384
219	0xbdf75512	-0.12076773
220	0x3de269dc	0.11055347
221	0x3d9bc83d	0.07606552
222	0x3db74394	0.089484364
223	0xbdd6cdab	-0.10488447
224	0x3df9672c	0.121778816
225	0xbe0c55ac	-0.13704556
226	0x3dcec9b3	0.10097065
227	0xbdc56c87	-0.096398406
228	0x3db92524	0.09040287
229	0x3db47aeb	0.08812507
230	0xbdaffc07	-0.08592992
231	0x3de8d603	0.113689445
232	0x3dd76748	0.10517746
233	0xbda64d29	-0.08120186
234	0xbdd053fc	-0.10172269
235	0xbdcd5264	-0.100254804
236	0x3ddff0ad	0.10934577
237	0xbdd7db70	-0.10539901
238	0x3de4ea27	0.111774735
239	0x3dd0fef0	0.102048755
240	0x3dbddb9f	0.09270405
241	0x3dea4fc9	0.11440999
242	0xbdede6fa	-0.11616321
243	0xbe0c106d	-0.13678141
244	0xbdd37872	-0.103257075
245	0x3dfc3c19	0.1231615
246	0x3db69bad	0.089164115
247	0xbdc5a4a1	-0.09650541
248	0xbdf21538	-0.118204534
249	0xbd68e8bd	-0.05686258
250	0xbe12e32e	-0.14344475
251	0x3cd88084	0.026428469
252	0x3e110fd4	0.14166194
253	0x3d78b794	0.06072195
254	0xbd8abdbe	-0.06774472
255	0x3db71140	0.08938837

encoder_map.ffnn.6.bias f4 [10]
0	0x3d284bae	0.0410878
1	0xbed3415a	-0.41260797
2	0x3d2b57f9	0.041831944
3	0xbb002f6d	-0.0019559518
4	0xbea25944	-0.3170873
5	0x3d11615f	0.03549325
6	0x3d175ff7	0.036956754
7	0x3cdf3688	0.027247682
8	0xbd6c4a50	-0.057688057
9	0x3cb2c585	0.0218227

readout_map.ffnn.0.weight f4 [50, 10]
0	0x3bcea075	0.006305749
1	0x3d781ee0	0.06057632
2	0x3a54ec5f	0.000812238
3	0x3a618e8a	0.0008604309
4	0x3c9ffefc	0.019530766
5	0x3ad69076	0.0016369957
6	0xbbb2d4e9	-0.00545751
7	0xba37e3a0	-0.0007014815
8	0x3ca44a96	0.020055097
9	0xbbbad36f	-0.0057014744
10	0xb2c52d36	-2.2954378e-08
11	0x35065f51	5.0057594e-07
12	0xb2bd4168	-2.203224e-08
13	0xb191d920	-4.2447397e-09
14	0x34a0a1b7	2.9919985e-07
15	0xb2c0c229	-2.2440036e-08
16	0xb2bf1542	-2.2244993e-08
17	0xb2c020e7	-2.2366704e-08
18	0x33658ea7	5.344796e-08
19	0xb296ab48	-1.7540188e-08
20	0xb1c4faf2	-5.73288e-09
21	0x342a5db4	1.5866573e-07
22	0xb1b29469	-5.197354e-09
23	0x3204aa57	7.722142e-09
24	0x33e093ac	1.0457674e-07
25	0xb1bb413e	-5.4498335e-09
26	0xb1b52d81	-5.2729665e-09
27	0xb1b757a1	-5.3359632e-09
28	0x3317a386	3.530615e-08
29	0xb0f033c4	-1.7477011e-09
30	0xb3438bc1	-4.552908e-08
31	0x36147467	2.2121474e-06
32	0xb33eb3b8	-4.4401276e-08
33	0xb107e4c2	-1.977512e-09
34	0x35e7a547	1.7258943e-06
35	0xb3416933	-4.5031992e-08
36	0xb33c7422	-4.3877783e-08
37	0xb33f2f63	-4.451375e-08
38	0x3416d1e4	1.4046196e-07
39	0xb3197c64	-3.573622e-08
40	0xb78c7d7a	-1.674773e-05
41	0xb989d895	-0.00026292042
42	0xb7888d0f	-1.6278149e-05
43	0xb68bcada	-4.166138e-06
44	0xb963cba3	-0.00021724268
45	0xb78a667b	-1.6498603e-05
46	0xb7891d0c	-1.6345199e-05
47	0xb78978ec	-1.6387981e-05
48	0x37cc9440	2.438773e-05
49	0xb75afe36	-1.3053001e-05
50	0xb4ba932a	-3.4752276e-07
51	0xb783ddae	-1.5719645e-05
52	0xb4c2d5f6	-3.6290993e-07
53	0xb5170514	-5.6259273e-07
54	0xb6fa9f6b	-7.4691393e-06
55	0xb4c03206	-3.5799184e-07
56	0xb4bdfcc5	-3.5387907e-07
57	0xb4bdefc5	-3.537845e-07
58	0xb53ef4dc	-7.1136833e-07
59	0xb4e69e50	-4.2956026e-07
60	0x35573cde	8.0182315e-07
61	0xb6359ac3	-2.7061185e-06
62	0x35445e5a	7.315299e-07
63	0xb57afda1	-9.3501336e-07
64	0x33ee7d4b	1.1105529e-07
65	0x354cfaaa	7.6360686e-07
66	0x354e67c6	7.689199e-07
67	0x354be639	7.595841e-07
68	0xb6c0270b	-5.726591e-06
69	0x34cdbf8a	3.8323589e-07
70	0xb3ae099e	-8.104256e-08
71	0x36fb5e56	7.491365e-06
72	0xb3a271e2	-7.564428e-08
73	0x3400dc43	1.200106e-07
74	0x36aa4467	5.074358e-06
75	0xb3a99d45	-7.898283e-08
76	0xb39ed59e	-7.396305e-08
77	0xb3a72eaf	-7.785035e-08
78	0x355103d0	7.7864115e-07
79	0xb2f7d6d0	-2.885227e-08
80	0xb7cf1fd7	-2.469115e-05
81	0x3887910b	6.464318e-05
82	0xb7cc34c7	-2.4343271e-05
83	0xb79245c2	-1.743704e-05
84	0x36134702	2.194604e-06
85	0xb7ce044e	-2.4559118e-05
86	0xb7ccdc79	-2.442136e-05
87	0xb7ce5fec	-2.460178e-05
88	0x36c11051	5.7537477e-06
89	0xb7be9fe8	-2.2724227e-05
90	0x37090104	8.166073e-06
91	0xb976d5e9	-0.00023540076
92	0x36fd4f4e	7.54922e-06
93	0xb7205324	-9.556101e-06
94	0xb9326168	-0.0001701169
95	0x3703bfc6	7.852859e-06
96	0x37006b6a	7.654404e-06
97	0x3701365a	7.701654e-06
98	0xb86b8640	-5.6153396e-05
99	0x365a5440	3.2533571e-06
100	0x341689cf	1.4019973e-07
101	0xb62cb92d	-2.5737784e-06
102	0x340c56f4	1.307015e-07
103	0xb3fbbede	-1.1722817e-07
104	0xb5f1515d	-1.7979579e-06
105	0x34121e70	1.3608383e-07
106	0x340ea158	1.3283477e-07
107	0x340ef931	1.3315436e-07
108	0xb565dc2a	-8.562953e-07
109	0x339e802a	7.380761e-08
110	0x368dd2b6	4.2266574e-06
111	0xb764f9b4	-1.3647998e-05
112	0x367c4ec7	3.759678e-06
113	0xb709fc14	-8.224528e-06
114	0x36b408e6	5.365454e-06
115	0x3684c1e5	3.956479e-06
116	0x367e8648	3.7927111e-06
117	0x3680f7b1	3.8435323e-06
118	0xb80d2509	-3.365151e-05
119	0x3481de51	2.418988e-07
120	0x345deb64	2.0667864e-07
121	0xb6dfee7a	-6.67368e-06
122	0x346a4d08	2.1820972e-07
123	0xb41ab778	-1.4409113e-07
124	0x362a5e68	2.5386926e-06
125	0x346fac36	2.232126e-07
126	0x344e5d26	1.9219132e-07
127	0x346dde06	2.2153117e-07
128	0xb5b0aa1c	-1.316253e-06
129	0x340d641e	1.3168071e-07
130	0xb208343e	-7.92812e-09
131	0x344f7fa4	1.9324813e-07
132	0xb1f87c22	-7.231862e-09
133	0x31bf8ff8	5.575199e-09
134	0x3409a5ea	1.2819478e-07
135	0xb2002512	-7.459009e-09
136	0xb1fe2030	-7.3960322e-09
137	0xb1fa85d1	-7.291171e-09
138	0x32ba3cbd	2.168087e-08
139	0xb1833842	-3.8189976e-09
140	0xb79393cb	-1.7592587e-05
141	0x39212392	0.00015367407
142	0xb7917c34	-1.7343184e-05
143	0xb72f49be	-1.0447982e-05
144	0x3900e66f	0.00012292874
145	0xb793038b	-1.7525415e-05
146	0xb791f92a	-1.7401373e-05
147	0xb7925b0f	-1.7446959e-05
148	0x375ec37d	1.3277747e-05
149	0xb7840d2e	-1.5741763e-05
150	0xb5e6e040	-1.7201601e-06
151	0xba626416	-0.000863613
152	0xb56132a0	-8.38927e-07
153	0x37625be0	1.3492041e-05
154	0xba5e69d7	-0.00084843993
155	0xb5a90248	-1.2592145e-06
156	0xb59082a0	-1.0766853e-06
157	0xb59af768	-1.1545899e-06
158	0x37f3b26c	2.9050942e-05
159	0x365198d4	3.1232385e-06
160	0xb68e514e	-4.241395e-06
161	0x39ec4b05	0.00045069322
162	0xb68d468c	-4.21034e-06
163	0x33061c00	3.1224772e-08
164	0x39c015a3	0.00036637214
165	0xb68db256	-4.2228885e-06
166	0xb68d0bfc	-4.2035226e-06
167	0xb68daf25	-4.222517e-06
168	0x378e31de	1.695094e-05
169	0xb64e2c7e	-3.072229e-06
170	0x33392fef	4.3117264e-08
171	0xb499c13b	-2.8639064e-07
172	0x3334dada	4.210856e-08
173	0x32da7ba7	2.543477e-08
174	0xb44f68f6	-1.9316562e-07
175	0x3336cbd2	4.256055e-08
176	0x33350659	4.214812e-08
177	0x33368e30	4.2504496e-08
178	0xb2cc79d2	-2.3804123e-08
179	0x331f2e45	3.7062154e-08
180	0x30ca56d2	1.472211e-09
181	0xb3a2d546	-7.582507e-08
182	0x30c3fb28	1.42595e-09
183	0x3021fad6	5.892792e-10
184	0xb3610744	-5.2393503e-08
185	0x30c6090a	1.4408965e-09
186	0x30c5410e	1.4352126e-09
187	0x30c55710	1.4358381e-09
188	0xb134c79d	-2.6306914e-09
189	0x30a5f79f	1.2075708e-09
190	0xb12f82d7	-2.5540225e-09
191	0x339e49e2	7.3708875e-08
192	0xb12970ac	-2.4656783e-09
193	0xad706400	-1.3664625e-11
194	0x33109230	3.366057e-08
195	0xb12d438a	-2.5213205e-09
196	0xb12a642d	-2.47952e-09
197	0xb12ac4cb	-2.485012e-09
198	0x31e212c4	6.579599e-09
199	0xb1025aa8	-1.8969022e-09
200	0xb7829293	-1.5565462e-05
201	0x379fe156	1.9059207e-05
202	0xb77c292b	-1.5029956e-05
203	0xb62c4a0c	-2.5673098e-06
204	0x373519b1	1.0794422e-05
205	0xb7809852	-1.5329719e-05
206	0xb77d87c8	-1.5111589e-05
207	0xb77feb8e	-1.5254029e-05
208	0x38128368	3.4931494e-05
209	0xb74582d4	-1.1772576e-05
210	0xb7977ba8	-1.8058185e-05
211	0xbcc5ac7e	-0.024130102
212	0xb9373723	-0.0001747278
213	0xbae43932	-0.0017412065
214	0xbbef00e2	-0.0072938064
215	0x3918cca4	0.00014572084
216	0xba37a566	-0.0007005542
217	0x3a257289	0.00063113176
218	0xbbdd35d8	-0.0067508034
219	0xba83ab27	-0.0010045514
220	0xb50e674f	-5.3049456e-07
221	0x3776a672	1.4701496e-05
222	0xb50c14c6	-5.2184294e-07
223	0xb45f17e2	-2.0777182e-07
224	0x37330522	1.06704265e-05
225	0xb50d362e	-5.2605435e-07
226	0xb50acae1	-5.1704234e-07
227	0xb50cd922	-5.2470034e-07
228	0x35790ef6	9.27815e-07
229	0xb4edb2ea	-4.4274867e-07
230	0xb398f865	-7.123234e-08
231	0xb1f0b580	-7.0055535e-09
232	0xb46079b2	-2.0905898e-07
233	0x34769ec5	2.2968295e-07
234	0xb34d4cac	-4.7800015e-08
235	0xb3e2b804	-1.0557417e-07
236	0xb409e8e2	-1.2843842e-07
237	0x32a152e0	1.8780554e-08
238	0x34b329d7	3.337179e-07
239	0x32ddf1b9	2.5837709e-08
240	0xb79eb422	-1.8918949e-05
241	0x3903e5a5	0.00012578683
242	0xb79b58bb	-1.8518758e-05
243	0xb70bb8c6	-8.3280665e-06
244	0x38b00166	8.3925945e-05
245	0xb79d4130	-1.8746214e-05
246	0xb79b950f	-1.854685e-05
247	0xb79ce3f7	-1.8702804e-05
248	0x37bf4f4c	2.28059e-05
249	0xb78585ed	-1.59172e-05
250	0x35fd121e	1.8855242e-06
251	0xb834ea7d	-4.313373e-05
252	0x35f8c8b0	1.8535848e-06
253	0x3577c85c	9.230623e-07
254	0xb83b613a	-4.4674824e-05
255	0x35f9ab4c	1.86018e-06

readout_map.ffnn.0.bias f4 [50]
0	0xba3e9756	-0.00072704756
1	0xb2d23b67	-2.447423e-08
2	0xb1eec586	-6.9491675e-09
3	0xb34bcbba	-4.744991e-08
4	0xb7975bd0	-1.8043356e-05
5	0xb4a483c8	-3.0643264e-07
6	0x356d17bf	8.8323935e-07
7	0xb3d43049	-9.880802e-08
8	0xb7d34e8c	-2.5189736e-05
9	0x37256560	9.85837e-06
10	0x342865c7	1.5683246e-07
11	0x36c344d5	5.819466e-06
12	0x348150bc	2.4086864e-07
13	0xb21f2261	-9.262835e-09
14	0xb797c934	-1.8094295e-05
15	0xb66d1c9c	-3.5332405e-06
16	0xb6a292a9	-4.8450497e-06
17	0x33401a19	4.472722e-08
18	0x30d3bf81	1.5406699e-09
19	0xb13dd01c	-2.7621416e-09
20	0xb78c0bce	-1.6694798e-05
21	0x390eea96	0.00013629565
22	0xb5157b10	-5.5685905e-07
23	0xb386973e	-6.267372e-08
24	0xb7a6fad2	-1.990554e-05
25	0x35ff508e	1.9022425e-06
26	0xb466d7b2	-2.1498889e-07
27	0x307d113a	9.2065344e-10
28	0x37089860	8.141709e-06
29	0x3795c054	1.7851744e-05
30	0xb6ba11f5	-5.5453224e-06
31	0x34b3138e	3.3355576e-07
32	0xb5f765a2	-1.8432513e-06
33	0x31289d0b	2.4536486e-09
34	0xb344416b	-4.5694303e-08
35	0xb5a07a22	-1.1956474e-06
36	0x35dea77c	1.6589033e-06
37	0xb2418026	-1.1263216e-08
38	0xba9caa1d	-0.0011952553
39	0x37ad69c6	2.0672462e-05
40	0x392342f5	0.00015569835
41	0x3484a327	2.4705625e-07
42	0x373dd7e0	1.131554e-05
43	0xb6ed2480	-7.0673996e-06
44	0xaead79a3	-7.888736e-11
45	0xb440a8b8	-1.7942773e-07
46	0xb43c75f4	-1.7551775e-07
47	0xb7534051	-1.2591555e-05
48	0xb80638fc	-3.200116e-05
49	0xb32c904a	-4.01781e-08
