data/saved_models/id-2/last_checkpoint/checkpt.tar (torch_old, 129135 bytes, 51 tensors)

ode_f.f.0.weight f4 [50, 13]
000000 05 5c d4 be 33 50 a1 3d d0 ea 97 3c f2 67 ab be
       -0.41476455 0.07876625 0.018544585 -0.3347774
000010 c7 84 f9 bc 78 e4 79 bd e2 46 25 3e ed 87 80 be
       -0.030458821 -0.0610089 0.16140321 -0.25103703
000020 13 6c 36 3e 84 6d eb 3d 6c 9b e6 be a2 9f 23 be
       0.17814665 0.11495498 -0.45040452 -0.15978864
000030 d5 4a 0d bf e3 57 87 3e fd 81 2f 3e 00 16 01 3e
       -0.5519231 0.2643424 0.1713943 0.12606049
000040 9a 31 6a bb 2d da 4e 3e 8b 21 38 3e 5e 9a 31 3e
       -0.0035735131 0.20200415 0.17981546 0.17344043
000050 1e 70 9e 3d 0b 14 08 3e 3a d2 8e 3d af b6 b8 bd
       0.077362284 0.13288896 0.06973691 -0.09019219
000060 b6 2b 98 b9 76 6c 84 3d c7 e0 e5 be 2b ea f5 bd
       -0.00029024266 0.06466 -0.44898054 -0.120075546
000070 23 34 7f 3d cb 32 91 be 87 a7 8e be 47 d6 0f bb
       0.06230558 -0.28359064 -0.27862188 -0.0021947788
000080 9c b6 be 3d bd 7c e1 3c 39 51 19 3e 80 5e 64 bd
       0.09312174 0.0275253 0.1497239 -0.055754185
000090 90 db c3 be 1c 13 11 3d 57 7a da be 52 de 6f be
       -0.3825345 0.035418615 -0.42671463 -0.23424652
0000a0 05 a8 7a be 37 6c a8 bd 60 1d 73 bc 9f 9f 33 3c
       -0.24478157 -0.08223765 -0.0148385465 0.01096335
0000b0 45 b3 70 bd 08 19 2c 3e 4d d8 06 be f3 37 c7 3c
       -0.058764715 0.16806424 -0.1316845 0.02431867
0000c0 30 97 d3 be 94 c5 95 be e5 05 6b 3d 0f ec f4 be
       -0.41326284 -0.29252303 0.05737867 -0.47836348
0000d0 80 6a ba 3e e2 45 02 3d d2 cd 82 be bd 9f ed 3d
       0.36409378 0.031804927 -0.25547653 0.11602733
0000e0 58 5e f6 3a 77 23 09 3c 0d f3 2d 3e de 04 51 3e
       0.0018796427 0.008370272 0.16987248 0.20412013
0000f0 92 bb 34 3d 1f 02 03 3e cb d4 c7 3e e1 7b 39 3e
       0.044124193 0.12793778 0.39029536 0.18113662
000100 eb 9d 90 3e 33 96 43 be 60 ea 21 be fa 07 26 be
       0.28245482 -0.19100265 -0.15812063 -0.1621398
000110 4e e4 87 bd 55 62 21 be ac 8d 2d be 37 c5 13 be
       -0.066353425 -0.15760167 -0.16948575 -0.144307
000120 21 6d 53 bd 19 80 1e be 3d 98 8c bd da cc d0 3d
       -0.051617745 -0.15478553 -0.06864975 0.10195322
000130 e0 c3 9f bd 88 e2 3f bd c7 02 98 be 3e d3 76 bd
       -0.07801032 -0.046846896 -0.2968962 -0.06026005
000140 8b 68 44 3e 3f 3a 4f 3d f3 21 43 be ec f0 01 3d
       0.19180505 0.050592657 -0.1905592 0.0317239
000150 eb 02 5d be 43 d5 21 3e 71 30 ee 3c d1 51 d6 3d
       -0.21583144 0.15804009 0.029075833 0.10464824
000160 30 65 ec be 68 b7 1c 3e f2 0f 6d be 8d 77 52 3e
       -0.4617095 0.15304339 -0.23150614 0.20553418
000170 e6 2a 7f 3e c8 75 5b 3e 50 2d 07 3e c3 5f e4 3d
       0.24918708 0.21431649 0.13200879 0.111510776
000180 f8 8b 52 3e ed 37 5c bb cc 74 00 3e 78 5d 66 3e
       0.20561206 -0.003360267 0.12544554 0.22496593
000190 5d 4b 90 3d 54 41 8b bd 05 31 38 bc 2f e4 1b 3e
       0.070456244 -0.0679957 -0.011242156 0.15223764
0001a0 30 d8 ff bd cf 07 80 bd 48 a8 21 be 25 a6 de bc
       -0.12492406 -0.06251489 -0.1578685 -0.027178833
0001b0 09 60 ab bd f9 cc e5 bc 41 59 18 3d 90 a0 e2 3d
       -0.083679266 -0.02805184 0.037194494 0.11065781
0001c0 55 f2 02 3c d3 af cc bc 7c 63 6f 3f 0c 84 14 bd
       0.007992347 -0.024986183 0.93511176 -0.036258742
0001d0 03 40 5b 3e b4 04 b1 be 83 40 84 3e d7 47 07 3e
       0.21411137 -0.345739 0.2583047 0.13210998
0001e0 2d bd ef 3d 57 28 df bd 73 ba b8 3d b6 a6 c0 3c
       0.11706004 -0.10896366 0.09019937 0.023516994
0001f0 b1 a0 84 be 27 e1 f7 3c 41 e8 10 3e d3 b1 1e bf
       -0.25903848 0.030258728 0.14151098 -0.6199009
000200 5b 9a 5f bc e7 bd b0 be d0 60 f5 be 34 e5 15 3d
       -0.013647641 -0.34519884 -0.47925425 0.03659554
000210 13 a6 21 bd 16 d4 23 be af d7 ed 3d ad ee 42 be
       -0.03946502 -0.15998873 0.11613404 -0.1903636
000220 18 64 59 be 45 68 18 be 29 72 8a 3e d5 33 77 be
       -0.21229589 -0.14883526 0.27040222 -0.24140866
000230 a4 54 68 be 24 d2 08 3e 92 6c 0d bf 24 fc d2 3e
       -0.22688538 0.13361412 -0.5524379 0.41207993
000240 37 f0 fe 3d 81 ce 21 be 62 28 66 be 28 e3 49 3e
       0.12448161 -0.15801431 -0.22476342 0.1971556
000250 98 8c 24 3c 5c 86 72 bd e2 41 da 3c be 37 16 be
       0.010043286 -0.059210166 0.026642743 -0.14669701
000260 d1 a0 1b 3e 6a 32 fe 3e ef 89 9a bc 9e e3 b3 3e
       0.15198065 0.49647838 -0.0188646 0.35134596
000270 2c 13 a1 3d 60 d0 81 be 40 ae d0 ba 44 a8 cf 3e
       0.07864985 -0.2535429 -0.0015921071 0.40558064
000280 ce 45 25 be 0f a2 22 be 28 bc 57 bd 75 f1 6b 3d
       -0.1613991 -0.15882133 -0.052669674 0.05760332
000290 a0 80 18 be cc fb 2c 3e f5 ec 27 bf 45 48 89 3e
       -0.14892817 0.16892928 -0.6559594 0.2681295
0002a0 4c c5 f0 bd 22 88 e8 bd 8e 2b 5f be 4d 8b 3e be
       -0.117563814 -0.1135409 -0.21793959 -0.18607827
0002b0 fe 81 ce bd 04 53 e2 3d 67 a9 2b 3e 63 d9 76 3c
       -0.10083388 0.1105099 0.1676384 0.0150664775
0002c0 bb d0 2c 3d 77 34 2a 3e 67 99 c4 3d 2d 45 65 3f
       0.04219125 0.16621576 0.09599572 0.8955868
0002d0 ca d9 a9 be a7 89 9c 3e 3d 9e 34 be d8 ad 21 be
       -0.33173972 0.3057377 -0.17638488 -0.15788972
0002e0 18 1a b9 3d 1a 79 8b be c3 04 45 3e ad 80 4e 3e
       0.0903818 -0.2724083 0.19240098 0.20166273
0002f0 cc 8f 3d be 57 0e 2e be 7e a7 4e 3e b6 db 6c 3e
       -0.18511885 -0.16997658 0.2018108 0.23130688
000300 a6 f1 53 bf 8f 05 c7 3e 72 04 b2 be de 8d 78 be
       -0.827906 0.38871428 -0.34769017 -0.24272868
000310 77 63 1d be 6c 6e 2d be cb a7 7f bc 5e af 33 be
       -0.15369974 -0.16936654 -0.01560397 -0.17547366
000320 1c a9 37 be 70 24 08 be 51 27 60 bd 83 49 23 be
       -0.17935604 -0.1329515 -0.054724995 -0.15946011
000330 c0 3d 8c bd 6c b9 d9 3d 78 33 08 bd 9b d1 42 bd
       -0.068477154 0.106310695 -0.03325221 -0.047563177
000340 72 0f 6a 3e 17 98 39 3d a3 bc 0c 3d 0a af cc 3d
       0.22857454 0.04531106 0.034359585 0.099943236
000350 dd c6 3d 3e b9 43 6b 3e df 35 7e 3e fa 7b a1 3c
       0.18532892 0.22975053 0.24825238 0.019712437
000360 00 f4 6b 3e 51 69 89 3d 2a 75 33 3d 01 63 88 3c
       0.23042297 0.06709541 0.04381291 0.016648771
000370 f8 31 d0 3d 4c f4 55 be 27 32 2f be 02 3c 29 be
       0.10165781 -0.20893973 -0.17108975 -0.16526797
000380 d5 de 1a bc 0f 1c 2b be 69 7b 38 be e1 5d 2a be
       -0.009452541 -0.16709922 -0.18015827 -0.16637374
000390 48 3f 8d bd fb b7 31 be 5c b1 09 bd 7f e4 87 3d
       -0.068968356 -0.17355339 -0.03361641 0.06635379
0003a0 88 1b 19 bd 93 d2 1f bd 4d 1d 67 3d aa 82 14 be
       -0.03737977 -0.03901918 0.056424428 -0.1450297
0003b0 71 d7 45 3e 3b 74 ef 3d 70 71 2b be de c6 fb bd
       0.19320466 0.11692091 -0.16742492 -0.1229379
0003c0 6c b5 4d be 0f 95 55 3e a0 7a 8f bd a9 a6 9e 3d
       -0.20088738 0.20857643 -0.07005811 0.07746632
0003d0 cb e4 22 bf 27 e2 61 3c 49 f9 40 be a7 a2 ac b9
       -0.6363036 0.013786829 -0.18845095 -0.00032927582
0003e0 ec 7a 75 3d f1 85 25 be 2f c8 c5 be 34 04 db 3d
       0.05993168 -0.16164376 -0.3862929 0.10694161
0003f0 c2 35 27 3e 91 0a ef 3d 3d 3d a4 be 29 9e bc bb
       0.163291 0.11671937 -0.3207797 -0.005756159

ode_f.f.0.bias f4 [50]
000000 22 85 cd bc ae dc 2f 3e 81 33 3b bd 62 c9 88 bc
       -0.025087897 0.17174026 -0.045703415 -0.01669759
000010 0f ea 30 bc ec c2 23 be 43 43 00 bd 3b cc 30 3e
       -0.010797991 -0.15992326 -0.031314146 0.17265408
000020 23 84 a1 bd f2 7d 47 3d 8a 80 a1 39 c2 43 88 bd
       -0.07886531 0.048704095 0.00030804082 -0.06653549
000030 ab 61 c0 bc fa 2e 33 bd ea 1b c2 3d 6d 44 28 be
       -0.023484072 -0.043745972 0.094779804 -0.16432352
000040 26 a5 25 3e 52 68 33 be 96 f5 07 bc eb 53 1a 3d
       0.1617628 -0.17520264 -0.008298298 0.037677687
000050 6a b3 16 be ea e0 33 3e e9 43 bc 3d 40 05 a4 bc
       -0.14716879 0.17566267 0.0919264 -0.020022035
000060 f3 2c 87 3d 17 e4 32 bd 60 53 aa 3d 25 1d 22 be
       0.0660037 -0.043674555 0.08316684 -0.1583143
000070 22 b8 86 bb be 1a f8 3c 40 bb 4d 3d 54 da 45 3c
       -0.004111306 0.03028619 0.050227404 0.012075979
000080 98 01 ef bd 57 1a cb 3d 21 3b bc 3d 18 e8 1c 3b
       -0.11670226 0.09917133 0.091909654 0.002394205
000090 a1 0f d6 bc da 04 2f bd ab 5f ed 3d 11 0c 10 bd
       -0.0261305 -0.042729236 0.11590513 -0.035167757
0000a0 dd 51 f7 3c 16 53 14 be be 50 29 be 52 d5 d0 bd
       0.030190403 -0.1448482 -0.16534707 -0.101969376
0000b0 71 90 2f 3e 10 d5 29 3c 72 0e 8e bd 00 27 90 bc
       0.17144944 0.010365739 -0.06936349 -0.017596722
0000c0 a7 0f 7f bd 0d 8f 88 bd
       -0.062270787 -0.0666791

ode_f.f.3.weight f4 [50, 50]
000000 8e 2d 3f 3d 6c 50 44 be 52 34 cc 3d 51 e8 bd 3d
       0.046674304 -0.19171304 0.09970917 0.092728265
000010 2b 23 a6 bd 6f 63 42 3e 18 21 83 3d 71 c2 41 be
       -0.081121765 0.18983243 0.064027965 -0.1892183
000020 c1 81 90 3d 1a a9 7d bb 87 be ec 3d 87 dc 51 bd
       0.070559986 -0.0038705529 0.11559778 -0.051235702
000030 21 67 b5 3d 09 4e 1f 3d f1 68 47 bd c0 47 43 3e
       0.08857561 0.03889278 -0.048684064 0.19070339
000040 39 86 43 be 67 14 4a 3e cf 96 1f 3d 4e 7a 95 3b
       -0.1909417 0.19734345 0.03896218 0.004561699
000050 85 4b 42 3e 42 fc 45 be 7c 0d d2 bd e3 bd 5e 3d
       0.18974121 -0.1933451 -0.10256478 0.05438031
000060 f4 d4 27 bd 52 6c 8f 3d 7b 24 e4 bc 7c c6 39 3e
       -0.040974572 0.07003082 -0.027849426 0.18142122
000070 93 83 72 bd 54 c6 a8 3d 98 eb 2a bd 98 ba 4f bd
       -0.05920751 0.08240953 -0.041728586 -0.05071506
000080 f5 77 f2 bc d9 18 8e bd 1e 68 a4 3d 4c 2f 98 bb
       -0.029598216 -0.06938333 0.08027671 -0.00464431
000090 5d 19 34 3c 75 2b d9 3b fc b0 31 be d0 03 0d 3d
       0.010992375 0.006627495 -0.1735267 0.034427464
0000a0 5b e4 a5 bd a3 d0 3e 3e 7d 19 45 3e a7 55 28 3e
       -0.08100196 0.18634276 0.19248004 0.16438924
0000b0 02 aa 49 be 92 8d 60 3c 8c 3c ff 3c 3b a2 31 3d
       -0.19693759 0.013705628 0.0311568 0.043367606
0000c0 30 f1 6b bd cb d9 82 3d d4 dd 33 3d 53 c0 4a be
       -0.05760306 0.06389197 0.043912724 -0.19799928
0000d0 93 61 cb 3d be 8b c4 3d 36 a3 a7 bd c4 c7 41 3e
       0.0993072 0.09596966 -0.08185427 0.18923861
0000e0 d4 8e 79 3d 73 f7 43 be 28 a5 9b 3d cf 73 15 bc
       0.060927227 -0.19137363 0.075998604 -0.009121849
0000f0 c3 b1 eb 3d b9 89 4e bd 0b 46 af 3d 88 66 1c 3d
       0.11508515 -0.05042431 0.085582815 0.03818372
000100 c9 b3 43 bd 1c 75 48 3e 29 7f 42 be 72 80 4b 3e
       -0.04777888 0.19575924 -0.1899382 0.19873217
000110 f2 63 23 3d 03 28 d6 3b ed 63 3c 3e 0d 03 46 be
       0.039890237 0.0065355315 0.18397494 -0.19337101
000120 c5 4e d8 bd f5 b8 6b 3d aa a4 23 bd fa 99 97 3d
       -0.10561899 0.057549436 -0.039951958 0.074024156
000130 d4 27 06 bd 5e 24 2f 3e 68 d8 7d bd 18 87 a7 3d
       -0.032752827 0.17103717 -0.06197396 0.08180064
000140 63 e2 32 bd 39 34 47 bd f6 cd 04 bd 82 1b 93 bd
       -0.04367293 -0.048633788 -0.032422982 -0.07182981
000150 70 3a 9b 3d 46 a0 c6 bb c9 dc dc 3b 42 fe 39 3c
       0.075795054 -0.0060615866 0.006740187 0.011352124
000160 1b 98 31 be 77 62 f0 3c e8 27 a9 bd 15 9f 37 3e
       -0.1734318 0.029343827 -0.08259565 0.17931779
000170 44 1e 42 3e 93 9c 25 3e 58 9c 4d be 62 1c 98 3c
       0.18956858 0.1617301 -0.20079172 0.018568221
000180 c5 e4 dd 3c 9b 17 40 3d e4 db 76 bd 07 f4 87 3d
       0.027086625 0.046897512 -0.060268298 0.066383414
000190 ce 70 3a 3d e6 57 44 be 00 4e c9 3d ce 27 c4 3d
       0.045517735 -0.19174156 0.098293304 0.09577905
0001a0 4f fe a7 bd b1 fa 43 3e b3 2e 81 3d ed 6f 47 be
       -0.082028024 0.191386 0.06307735 -0.1947629
0001b0 1c 80 95 3d f5 0e d1 bb 7c 24 eb 3d bc a2 4b bd
       0.072998255 -0.006379957 0.11481568 -0.049715742
0001c0 8a 4a b1 3d c9 01 22 3d 8a 4a 58 bd d5 7b 45 3e
       0.08656795 0.039552484 -0.05280546 0.1928552
0001d0 ff 54 43 be ce 46 48 3e 5a 4f 22 3d b7 35 a4 3b
       -0.19075392 0.1955826 0.039626457 0.005011286
0001e0 ba 45 43 3e 37 17 47 be 9e bb d5 bd 04 4f 6f 3d
       0.19069567 -0.1944245 -0.10436176 0.058424965
0001f0 86 8d 2f bd 90 ee 96 3d 52 7e 04 bd 40 83 38 3e
       -0.042859577 0.07369721 -0.03234703 0.18018818
000200 5d db 71 bd 52 7f a4 3d 82 f6 38 bd b7 28 52 bd
       -0.05904709 0.08032097 -0.045156963 -0.05130836
000210 9d 0a f9 bc db 09 87 bd 47 7a 9e 3d 2b 9a e0 bb
       -0.030400569 -0.06593677 0.07738166 -0.0068543158
000220 5e 3e 2e 3c 70 57 20 3c 00 48 32 be b4 a9 01 3d
       0.010634987 0.009786472 -0.17410278 0.031655982
000230 6e f0 aa bd 1d 7a 3e 3e b2 9f 49 3e b2 2b 2a 3e
       -0.083466396 0.1860127 0.19689825 0.16618231
000240 a2 69 48 be 4c 8a 77 3c 93 f2 ec 3c 58 7f 3c 3d
       -0.19571546 0.015108656 0.028924262 0.046019882
000250 fb b0 73 bd 07 a0 83 3d 30 8f 3e be 26 08 74 bc
       -0.059494954 0.06427007 -0.18609309 -0.014894521
000260 2f 95 e0 bd 15 db 26 bd fd 8e 0c 3d 9e f8 5e 3d
       -0.109659545 -0.040736277 0.03431605 0.05443632
000270 61 29 28 be 3c a8 d5 bd c2 a1 9e 3e a4 fb 89 be
       -0.16422035 -0.10432479 0.30982786 -0.269498
000280 c6 bb 9a bd fd 96 4e 3e 80 71 8c be 24 e1 ad 3e
       -0.07555346 0.20174785 -0.27430344 0.3396083
000290 6e 69 c3 be 0d c7 12 3c 07 c3 69 bd 9f e3 e7 3b
       -0.38166374 0.00895859 -0.05707076 0.007076695
0002a0 6c 8a 60 be 86 b1 11 be 00 c8 79 bd 16 f2 1e be
       -0.21927804 -0.14227876 -0.06098175 -0.15522036
0002b0 a5 3a 1b 3d 03 a5 4e bc 67 2e 6d 3e 33 f4 ef 3c
       0.037897725 -0.012612584 0.23162232 0.029291248
0002c0 e3 84 bc be e2 8d a6 3d d7 10 e4 3d 59 73 9e bd
       -0.36820135 0.08132531 0.111360244 -0.077368446
0002d0 89 d3 a7 be 1b 90 e8 3d cf 41 40 3e ec 66 8f be
       -0.32778576 0.11355611 0.18775104 -0.2800821
0002e0 17 d2 2d be 94 5c 86 be cb 8d 14 3e b1 e1 03 bd
       -0.16974674 -0.26242507 0.14507215 -0.032197658
0002f0 98 84 d6 bb a6 a1 37 3e 45 38 db 3d bd 0f 0e 3d
       -0.006546568 0.17932758 0.10704092 0.034682978
000300 38 fe 86 3d b4 0a fa 3d f5 41 aa 3d e0 78 30 be
       0.06591457 0.12209073 0.083133616 -0.1723361
000310 67 4e 84 be 4a 11 68 3d 54 c1 9d 3d 11 10 bb bd
       -0.25841066 0.056657113 0.0770289 -0.09133924
000320 0f 39 36 3d ab d2 41 be b5 18 cb 3d 3f 48 c5 3d
       0.04448801 -0.1892802 0.09916822 0.096329205
000330 8d 29 a6 bd 55 47 42 3e 81 13 79 3d 73 0f 42 be
       -0.08113394 0.18972524 0.060809616 -0.18951206
000340 d4 ac 96 3d 0b 0a 19 bc 5b ea eb 3d ad ef 4b bd
       0.07357183 -0.009340773 0.11519309 -0.04978912
000350 ef 5d af 3d 52 d7 20 3d d6 61 51 bd 8a 9d 40 3e
       0.08562838 0.039267845 -0.051118694 0.18810096
000360 7f cd 41 be 2a 75 46 3e cb 12 1b 3d 83 fe 9c 3b
       -0.18926047 0.19380632 0.03785972 0.0047910823
000370 30 6d 40 3e 1c d0 45 be ac e3 d9 bd d5 92 6a 3d
       0.18791652 -0.19317669 -0.10639128 0.057268936
000380 10 c4 22 bd e3 ce 97 3d ac d8 04 bd a1 65 38 3e
       -0.03973776 0.074125074 -0.032433197 0.18007518
000390 a5 85 79 bd fc d5 a5 3d 12 e9 2e bd 65 3f 4a bd
       -0.06091847 0.08097455 -0.042702742 -0.049376864
0003a0 72 89 00 bd 91 31 86 bd dc 3e 9c 3d 61 06 d1 bb
       -0.031381078 -0.06552423 0.07629177 -0.0063789343
0003b0 df 06 fd 3b 4f 02 3e 3c 4b a2 31 be e5 42 02 3d
       0.0077217664 0.01159723 -0.17347066 0.031802077
0003c0 29 5a aa bd 4c fd 3c 3e 24 17 47 3e dc 15 29 3e
       -0.08317978 0.18456 0.19442421 0.16512245
0003d0 ad 49 49 be 08 e1 77 3c 21 a8 d6 3c 52 bd 3c 3d
       -0.19657011 0.015129335 0.026203217 0.046078987
0003e0 b3 6b 72 bd 82 21 85 3d 2a c5 32 be e2 6a a7 bd
       -0.05918474 0.06500532 -0.17458025 -0.08174683
0003f0 10 a8 1b be e9 ca c6 bd 05 94 05 3d ba 91 01 3e
       -0.1520083 -0.09706671 0.032611866 0.12653247

ode_f.f.3.bias f4 [50]
000000 9a 71 73 be b8 99 73 be 85 92 75 be 67 cc f3 bc
       -0.23773804 -0.23789108 -0.23981674 -0.029760553
000010 e0 ff 73 be 99 e0 a2 bc e4 12 af bd 66 93 1b 3d
       -0.23828077 -0.019882487 -0.08548525 0.037982367
000020 92 bc 14 3d e3 7d 89 3c c1 b4 73 be 43 2b 35 3d
       0.036312647 0.01678366 -0.23799421 0.04423071
000030 1e 58 d1 bb 71 18 d9 3c 49 f5 74 be 9f 53 74 be
       -0.006388678 0.026500912 -0.23921694 -0.23860024
000040 db 37 73 be c4 59 71 3e fe ab 02 bd 73 d6 73 3e
       -0.23751776 0.23569399 -0.031902306 0.23812275
000050 69 67 76 be ac a3 1e bd a6 99 74 be 8a 22 45 bd
       -0.24062885 -0.03873031 -0.23886737 -0.048128642
000060 d9 73 e6 bd 78 df 76 be bf 8d 62 be 76 02 74 3e
       -0.11252565 -0.24108684 -0.22124384 0.23829064
000070 1a 32 74 3e 6e b1 74 be 51 05 0d 3d d7 65 12 bd
       0.23847237 -0.23895809 0.0344289 -0.035741653
000080 0c 39 73 be ff 7d 4b bd 42 b9 75 be a4 b6 9e bd
       -0.2375223 -0.049680706 -0.23996451 -0.0774968
000090 55 b7 73 3e e1 bc 96 3d 55 cb 72 be b5 c4 72 be
       0.23800404 0.073602445 -0.23710378 -0.2370785
0000a0 51 d8 74 be d0 20 55 bd c3 ed 5f 3c f9 fd 02 bd
       -0.23910643 -0.052033246 0.013667527 -0.03198049
0000b0 9b 71 73 3e 20 b2 75 3e ce c8 0f bd 54 2c 8e 3d
       0.23773806 0.2399373 -0.03510361 0.06942049
0000c0 17 1f 2e 3d 8c 70 74 3e
       0.04251012 0.23871058

ode_f.f.6.weight f4 [10, 50]
000000 f4 c0 a4 bf 26 c3 c2 bf 95 95 be bf 77 1a de 3f
       -1.2871385 -1.5215805 -1.4889399 1.7351826
000010 2a 5c ad bf 2a 69 d9 3f 15 98 c6 bf d0 b5 d1 bf
       -1.3543751 1.6985219 -1.5515162 -1.638361
000020 d1 e9 cd bf 10 e1 d0 3f 2c 41 9f bf 1c ce c8 bf
       -1.608698 1.6318684 -1.2441764 -1.56879
000030 23 0b ce 3f 0e 3f c8 bf 2a 10 c2 bf 26 e2 9f bf
       1.6097149 -1.5644243 -1.5161183 -1.249089
000040 ee 1a c4 bf 31 35 a9 3f 11 d5 c8 3f 02 c9 bb 3f
       -1.5320718 1.3219358 1.5690023 1.4670718
000050 9f 7e ba bf e2 fa cd bf 09 9f 9f bf 41 b4 be 3f
       -1.4569892 -1.6092188 -1.2470409 1.4898759
000060 e1 4c d0 bf 6b 78 b5 bf 0e 01 b0 bf 0b 2f ac 3f
       -1.6273462 -1.4177374 -1.3750322 1.3451856
000070 c4 c9 a8 3f ef bf b5 bf 34 c7 cb bf 5a e6 c6 3f
       1.3186574 -1.4199198 -1.5920167 1.5539048
000080 a2 9c c3 bf d7 c0 d5 3f 62 19 b8 bf 8b 51 ce bf
       -1.5282176 1.6699475 -1.4382746 -1.6118635
000090 f6 9d b5 3f df 71 d3 3f 7c 6f bd bf f5 20 b3 bf
       1.4188831 1.6519126 -1.4799647 -1.3994433
0000a0 1c 0b c6 bf 0e a5 d5 3f 50 ce c8 bf 38 d1 b6 bf
       -1.547214 1.6690996 -1.5687962 -1.4282598
0000b0 67 90 aa 3f e8 de c6 3f 66 7f db 3f be e5 b9 3f
       1.3325318 1.5536776 1.7148254 1.4523237
0000c0 11 c5 dd bf 08 9a b6 3f 55 a4 bc bf 39 5e a7 bf
       -1.7325765 1.4265757 -1.473765 -1.307563
0000d0 43 8c a6 bf 0d 57 d8 3f b0 ec b9 bf 18 bd c3 3f
       -1.3011554 1.6901566 -1.4525356 1.5292082
0000e0 2f c5 c1 bf e3 40 db bf 7b 3d e2 bf ce 08 bf 3f
       -1.5138301 -1.7129177 -1.7675012 1.4924562
0000f0 94 59 bd bf 85 c0 df bf dc cc cd 3f 42 8c db bf
       -1.4792962 -1.7480627 1.6078143 -1.7152178
000100 5b 4b b9 bf 05 20 af bf 22 b1 bf bf ce cb bc 3f
       -1.4476122 -1.3681647 -1.4975932 1.4749696
000110 09 76 ce 3f 2f c6 bd 3f 4d d7 b4 bf d4 08 c3 bf
       1.6129771 1.4826106 -1.4128205 -1.5237069
000120 64 43 c7 bf 35 e2 e1 3f 47 98 bf bf 0d 3a bc bf
       -1.5567441 1.7647158 -1.4968346 -1.4705216
000130 ce ac ac bf a5 33 c3 3f 58 94 a9 3f a0 d5 c4 bf
       -1.3490236 1.5250136 1.3248396 -1.5377693
000140 34 6d c9 bf 3e 30 da 3f ba c1 a9 bf c0 98 ce 3f
       -1.5736451 1.7045972 -1.3262246 1.6140366
000150 20 e0 a4 bf 95 65 c8 bf 5a c7 c4 3f 83 e6 c0 3f
       -1.2880898 -1.5656 1.5373337 1.5070347
000160 aa fb b0 bf b9 cf c3 bf e6 fa ba bf 05 3c de 3f
       -1.3826802 -1.5297767 -1.4607818 1.7362067
000170 f2 b9 ce bf 38 1a ba bf 45 4b c4 3f f7 78 b3 3f
       -1.6150496 -1.4539251 1.533547 1.402129
000180 1c cb dd 3f a0 fa bd 3f 0d e3 e0 bf 3a cc b8 3f
       1.7327609 1.484211 -1.756929 1.4437325
000190 f9 dd a1 bf db 51 75 bf b4 9e 79 bf ca 7a 73 3f
       -1.2645866 -0.95828027 -0.97507787 0.95109236
0001a0 72 74 72 bf 35 e2 0c 3f 3b 33 53 bf 5f ba 68 bf
       -0.9470893 0.55032665 -0.82500046 -0.9090938
0001b0 14 5e 5f bf ca 70 07 3f e3 60 94 bf f2 6c 24 bf
       -0.87252927 0.5290648 -1.1592067 -0.6422874
0001c0 ea f7 f8 3e 55 dc 54 bf 41 7a 85 bf 87 6a 91 bf
       0.48626643 -0.831487 -1.0427934 -1.1360635
0001d0 26 4f 7d bf 8b 12 51 3f 9d f5 65 3f 45 d3 5c 3f
       -0.98948896 0.8166892 0.898279 0.8625987
0001e0 7e 2a 8c bf c4 1f 23 bf 0a f2 71 bf ff f3 3e 3f
       -1.0950468 -0.63720345 -0.9450995 0.7459106
0001f0 9c e6 9f bf 49 8d a4 bf d2 25 63 bf 09 48 88 3f
       -1.2492251 -1.2855617 -0.88729584 1.0646983
000200 60 34 8b 3f 76 dd 6b bf 26 77 74 bf 37 ef 01 3f
       1.0875359 -0.921348 -0.95494306 0.5075564
000210 89 25 99 bf 1c 35 2d 3f 88 68 96 bf 08 e9 35 bf
       -1.196458 0.67659163 -1.175065 -0.710587
000220 45 d1 9b 3f 25 51 44 3f 3b ab 53 bf eb 94 51 bf
       1.2173239 0.76686317 -0.8268315 -0.81867856
000230 87 22 64 bf 42 81 2f 3f 3d 9b 4e bf 4a ed 3e bf
       -0.89115185 0.68556607 -0.80705625 -0.74580824
000240 11 b5 9a 3f 5c d9 93 3f 35 76 5b 3f 7b ce 5e 3f
       1.2086507 1.1550708 0.85727245 0.87033814
000250 a5 7e 27 bf 91 47 9e 3f eb 25 bf bf 40 b9 b1 bf
       -0.6542762 1.236559 -1.4933447 -1.3884659
000260 e5 87 c6 bf 47 39 c5 3f b2 aa b9 bf 54 46 da 3f
       -1.5510222 1.5408105 -1.4505217 1.7052712
000270 45 c9 c5 bf c5 04 c7 bf 1f a0 c4 bf cb 04 ba 3f
       -1.5452048 -1.554833 -1.5361365 1.4532713
000280 1d 97 aa bf 21 7f cf bf e9 37 ae 3f 17 e8 d1 bf
       -1.3327366 -1.6210672 1.3610812 -1.6398953
000290 c8 6b bc bf 7e 92 b5 bf 13 66 c6 bf b8 b0 be 3f
       -1.4720392 -1.4185331 -1.54999 1.489768
0002a0 ca 68 d0 3f c5 ff b2 3f 7a ac b5 bf 82 a7 ac bf
       1.6281979 1.3984305 -1.4193261 -1.3488619
0002b0 59 57 b7 bf 50 3f c6 3f 44 10 c6 bf 90 9d c1 bf
       -1.4323531 1.5488071 -1.5473714 -1.5126209
0002c0 1b d4 ba bf d6 e2 c1 3f 4e f2 af 3f fa 3e bf bf
       -1.459598 1.514735 1.374582 -1.4941094
0002d0 5e cc d4 bf 7a f2 c8 3f 81 7d b8 bf 75 5d d2 3f
       -1.6624868 1.5698998 -1.4413301 1.6434771
0002e0 58 96 ac bf f1 f9 d4 bf d0 9b bc 3f aa f3 cc 3f
       -1.3483381 -1.6638776 1.473505 1.601186
0002f0 e8 90 bc bf ff 37 b9 bf 7a 3c b5 bf 70 22 cd 3f
       -1.4731722 -1.4470214 -1.4159081 1.6026134
000300 94 f0 db bf a9 72 be bf 47 98 a5 3f 23 49 be 3f
       -1.7182794 -1.4878742 1.2937096 1.486607
000310 9b 26 ca 3f 3c eb c4 3f d7 db bf bf 22 0e c2 3f
       1.5793031 1.5384288 -1.4988965 1.5160563
000320 7c 0e a9 bf 52 a8 c2 bf 0c b5 bf bf 66 98 d3 3f
       -1.3207545 -1.5207617 -1.4977126 1.6530883
000330 55 49 b3 bf 0c 43 db 3f 27 b2 c6 bf dd d6 dc bf
       -1.4006754 1.7129836 -1.5523118 -1.7253071
000340 32 7a c5 bf 64 39 d1 3f 01 fa bd bf 37 26 cc bf
       -1.5427916 1.6345639 -1.484192 -1.5949162
000350 20 ce c3 3f 5e e8 db bf fc 02 c4 bf e7 7f a5 bf
       1.5297279 -1.7180288 -1.5313411 -1.2929658
000360 89 52 c1 bf f3 ed b6 3f 5f bd ca 3f bb 95 b2 3f
       -1.5103313 1.4291366 1.5839041 1.3951944
000370 96 e7 c4 bf 07 e0 be bf ff a3 a5 bf b4 67 c9 3f
       -1.5383174 -1.4912118 -1.2940673 1.5734773
000380 6e 0c b8 bf b5 62 be bf ef de b9 bf 33 b5 b5 3f
       -1.4378793 -1.4873873 -1.4521159 1.4195923
000390 63 78 bc 3f 71 cd b4 bf 46 d9 c5 bf 3c 9c e1 3f
       1.4724239 -1.4125196 -1.5456932 1.7625804
0003a0 86 98 af bf d6 5d c2 3f 54 57 c2 bf 83 a9 c3 bf
       -1.3718421 1.5184886 -1.51829 -1.5286106
0003b0 91 2e c4 3f 29 3a bb 3f 32 0d bb bf bd f8 c4 bf
       1.5326711 1.4627124 -1.4613402 -1.5388409
0003c0 75 00 a4 bf de 1a ce 3f 8e af c5 bf 36 c6 d3 bf
       -1.281264 1.6101949 -1.54442 -1.6544864
0003d0 7e 73 bc 3f 16 a5 b2 3f 45 32 d8 3f 2e cd b0 3f
       1.4722745 1.395663 1.6890341 1.3812616
0003e0 76 b4 e1 bf f5 1e a8 3f 77 67 c1 bf 65 5f be bf
       -1.7633197 1.3134447 -1.51097 -1.4872862
0003f0 34 aa ad bf 78 9a c4 3f 65 1f ca bf 22 be d8 3f
       -1.3567567 1.535964 -1.5790831 1.6933024

ode_f.f.6.bias f4 [10]
000000 a7 8b b3 3f 7d b1 b3 3f 9a 1f 80 3f e4 b5 b2 3f
       1.4026994 1.403854 1.0009644 1.3961759
000010 c7 c6 b4 3f bc 33 b4 3f 5d 6b b4 3f 52 25 b5 3f
       1.4123162 1.4078288 1.4095265 1.4152014
000020 d3 ce 8e 3f 6e 72 59 3f
       1.1156868 0.8494023

encoder_map.ffnn.0.weight f4 [50, 1]
000000 92 b4 05 bf cf cc b2 be 65 b4 79 3e 97 51 af be
       -0.52228653 -0.34921882 0.24385221 -0.34241936
000010 1d 8a 92 3e 26 d5 b9 3e 8f b2 9b be e4 d2 e8 be
       0.28620997 0.36295432 -0.30409667 -0.45473397
000020 ed 33 b5 3e 29 61 c5 3e 27 c7 9c 3e 1e e8 6f 3e
       0.3539118 0.3855069 0.3062069 0.2342839
000030 b0 9b f9 3e f2 f5 d9 3e ef a6 ce 3e e8 a7 ed be
       0.48751593 0.42570454 0.40361735 -0.46417165
000040 c1 46 fb be c6 01 9f be 72 56 09 3f 72 71 85 3e
       -0.49077418 -0.3105604 0.5364753 0.26063114
000050 b8 73 cd be c4 b4 ca be e5 70 88 3e 1c 80 c2 3e
       -0.4012735 -0.39591038 0.26648632 0.37988365
000060 4d e5 2c 3e a3 83 78 38 84 a2 af be f1 a1 c2 be
       0.16884346 5.9250404e-05 -0.34303677 -0.38014176
000070 8f ff c7 3e 60 09 ef be fb 8b d5 3e db 53 84 be
       0.39062163 -0.4668684 0.4170836 -0.25845227
000080 07 98 da be b8 47 d7 3e 21 df 90 3e 7e fd e8 3e
       -0.42694113 0.42046905 0.28295234 0.455059
000090 72 2c de be a8 7e c1 be 72 2e c7 be 52 1a fa 3e
       -0.43393284 -0.37791944 -0.38902622 0.48848206
0000a0 50 98 d2 be ee 33 d9 3e c5 95 07 3f 06 37 f3 be
       -0.4113183 0.42422432 0.52962905 -0.47502917
0000b0 b4 57 e9 be 34 24 c4 3e d5 0a dc 3e 8b e7 b7 be
       -0.45574725 0.3830887 0.42977014 -0.3591884
0000c0 5e 6a 89 3e 5a 4c f0 be
       0.26838964 -0.46933252

encoder_map.ffnn.0.bias f4 [50]
000000 20 05 a4 be 15 91 a8 be 6e e7 6f 3e 24 46 a2 be
       -0.3203516 -0.3292319 0.23428127 -0.31694138
000010 f4 d9 5c 3e 39 8d 85 3e 86 28 60 be 32 15 cb be
       0.21567518 0.26084307 -0.21890458 -0.39664608
000020 1a 66 79 3e 5d 69 94 3e de eb 57 3e e7 5a 54 3e
       0.24355355 0.28986636 0.2108607 0.20737801
000030 88 c9 83 3e 99 b5 8b 3e d5 3a 8f 3e 3d a1 9d be
       0.25739694 0.27286986 0.27974573 -0.30787078
000040 a3 fe 9d be a2 9e 8b be 79 c7 a3 3e 04 5d 84 3e
       -0.30858335 -0.27269465 0.31988123 0.25852215
000050 cd 72 b4 be ff e2 5c be 1b 32 e3 3d 3e d1 76 3e
       -0.35243836 -0.21570967 0.11093541 0.24103257
000060 e9 56 e6 3d c4 57 b2 b7 b0 b7 86 be 0e 38 82 be
       0.112470455 -2.1260123e-05 -0.26312017 -0.2543339
000070 c9 51 a3 3e 15 9a 93 be 6f bf 72 3e 92 58 a2 be
       0.31898335 -0.28828493 0.23705839 -0.317082
000080 7b 09 8f be 5f f3 9d 3e 97 3a 3a 3e b6 4f 96 3e
       -0.2793692 0.3084974 0.18186413 0.2935769
000090 77 ad 95 be 9c 96 65 be 5b c9 74 be 36 66 ba 3e
       -0.29233906 -0.22420734 -0.23904936 0.36406106
0000a0 90 e2 89 be 39 f9 90 3e 4d 69 b5 3e ca 78 9b be
       -0.26930666 0.28315142 0.354319 -0.30365592
0000b0 6d f9 83 be 98 c7 21 3e f9 92 90 3e 3f 39 81 be
       -0.25776234 0.15798795 0.2823713 -0.25238988
0000c0 47 e7 3e 3e 99 1a 8c be
       0.18642913 -0.27364042

encoder_map.ffnn.3.weight f4 [50, 50]
000000 87 56 11 3e 10 af d6 3d bd 6b 97 bd fd 39 d7 3d
       0.14193164 0.10482609 -0.07393596 0.10509107
000010 68 53 97 bd 59 c8 c1 bd ff 9c 96 3d f0 27 07 3e
       -0.07388955 -0.094620414 0.073541634 0.13198829
000020 e4 51 a6 bd ec 4f bd bd 95 9a 95 bd 87 e8 86 bd
       -0.08121088 -0.092437595 -0.07304875 -0.0658732
000030 c9 76 d1 bd 7d ab c3 bd 70 43 d1 bd 71 fb e5 3d
       -0.102277346 -0.09554193 -0.10217941 0.11229599
000040 f8 ec ee 3d 85 23 af 3d 46 a9 01 be 00 48 9a bd
       0.11666292 0.08551697 -0.12662229 -0.07533264
000050 e4 29 f1 3d 71 73 a0 3d f3 0d 5f bd 4d 39 9f bd
       0.11775568 0.07834519 -0.054456662 -0.07774601
000060 72 ca 28 bd fb ae a5 b6 b5 a7 c9 3d 77 be c8 3d
       -0.041208692 -4.9377536e-06 0.09846441 0.09801953
000070 87 83 d3 bd d0 30 e1 3d 76 85 ab bd 2e ad a5 3d
       -0.10327821 0.10995638 -0.08375065 0.08089672
000080 c7 37 d2 3d ab 27 c7 bd 11 ff 87 bd 25 4c ec bd
       0.10264545 -0.09724363 -0.06640447 -0.11537961
000090 a1 ac f9 3d c0 54 9f 3d 4a a0 a8 3d dd bd 10 be
       0.121911295 0.07779837 0.08233698 -0.14134927
0000a0 7d 62 ba 3d 2f 62 c4 bd 2a 5d 0e be 2c d7 de 3d
       0.091008164 -0.095890395 -0.13902727 0.108808845
0000b0 85 30 db 3d 82 30 9a bd 37 df cd bd 39 18 d1 3d
       0.10702614 -0.075287834 -0.100523405 0.10209698
0000c0 75 1f 88 bd e9 ac d0 3d 3f f8 12 3e 41 27 b5 3d
       -0.06646625 0.1018923 0.14352511 0.08845378
0000d0 5d 19 80 bd 0f 0e d0 3d 0c 4a 90 bd 8f 61 9c bd
       -0.06254838 0.101589315 -0.07045373 -0.07635795
0000e0 21 43 80 3d c3 b7 17 3e 91 ca ae bd 78 62 b0 bd
       0.06262804 0.14816193 -0.0853473 -0.086125314
0000f0 bc 05 95 bd 3d af 6d bd 46 e8 e8 bd 89 d1 b5 bd
       -0.07276484 -0.05802845 -0.11372428 -0.08877856
000100 57 67 c4 bd 34 87 e7 3d 3e e4 cc 3d a5 4e b8 3d
       -0.09590023 0.11305085 0.10004471 0.08999375
000110 49 8c 03 be 76 22 8f bd fa 88 de 3d d9 b6 a1 3d
       -0.12846483 -0.06988995 0.1086597 0.078962035
000120 84 93 61 bd ec 1f a0 bd 99 00 12 bd a6 e2 48 b7
       -0.055072322 -0.078185886 -0.0356451 -1.19737e-05
000130 10 aa d0 3d b1 78 bb 3d 09 39 d6 bd 27 69 bf 3d
       0.10188687 0.091538794 -0.10460097 0.09346228
000140 0b 69 a5 bd ec 2b 9e 3d b9 a0 ef 3d 0f f5 d2 bd
       -0.08076676 0.07723221 0.11700577 -0.103006475
000150 bb 07 85 bd a7 b9 05 be 1c f2 f3 3d 84 1b 9b 3d
       -0.06495615 -0.13059102 0.11911413 0.075736076
000160 60 9b 93 3d c1 44 0b be 52 2f cd 3d c3 6a bb bd
       0.0720737 -0.13600446 0.10018791 -0.091512226
000170 02 aa 02 be e7 e4 e0 3d 2c 82 b6 3d 70 15 92 bd
       -0.12760165 0.1098116 0.08911547 -0.07132995
000180 9e bc ad bd b9 62 b0 3d 00 49 78 bd cf f2 de 3d
       -0.084832415 0.0861258 -0.060616493 0.10886156
000190 9b 90 fa 3d 30 ee 9e 3d c7 8a 8f bd ae 65 cf 3d
       0.122346126 0.077602744 -0.070088916 0.10126816
0001a0 d4 f2 85 bd 2e f8 a7 bd bb ab 95 3d 33 61 04 3e
       -0.065404564 -0.082016334 0.073081456 0.12927704
0001b0 e8 f4 9f bd 87 21 b9 bd 95 56 85 bd 8a 6f 64 bd
       -0.07810384 -0.09039598 -0.06510655 -0.055770434
0001c0 36 db ee bd 5f 1e cc bd 7b cb bd bd 0f 4a e3 3d
       -0.11662905 -0.0996673 -0.092673264 0.1109811
0001d0 51 33 e7 3d de 83 b0 3d e6 5d cf bd ba ea 8d bd
       0.11289085 0.08618902 -0.101253316 -0.06929536
0001e0 ac c3 e3 3d f8 54 8d 3d 18 7d 50 bd f6 39 a1 bd
       0.11121306 0.06900972 -0.05090055 -0.07872383
0001f0 9e 4b 07 bd c5 86 66 b6 f0 43 a7 3d 3d 4f a4 3d
       -0.0330311 -3.4351117e-06 0.08167255 0.08022926
000200 79 29 c6 bd 66 6f ce 3d 52 8f 95 bd 06 45 aa 3d
       -0.09675879 0.10079841 -0.07302727 0.083139464
000210 d1 a2 c4 3d f1 e9 c5 bd ea b1 82 bd d0 70 f1 bd
       0.09601367 -0.096637614 -0.06381591 -0.117890954
000220 2e d7 ea 3d c7 7b 8e 3d 91 a7 a4 3d a5 73 02 be
       0.114668235 0.069572024 0.08039773 -0.12739427
000230 62 5b bc 3d 91 24 d7 bd 1b 5f fa bd ff 2f e3 3d
       0.091971174 -0.10505021 -0.12225171 0.11093139
000240 d1 e5 cb 3d a5 14 7e bd 7a 75 c3 bd b5 cc a5 3d
       0.099559434 -0.062031407 -0.09543891 0.080956854
000250 3e 51 72 bd c6 e1 b7 3d 96 03 b3 bd 88 96 9c bd
       -0.05915951 0.0897861 -0.08740918 -0.07645899
000260 16 95 89 3d 7a 79 c1 bd b6 97 88 3d 11 53 9d 3d
       0.06717889 -0.09446998 0.066695616 0.07681859
000270 3d b6 8c bd 41 cc 11 be 1e b0 9a 3d 0a d7 c4 3d
       -0.06870697 -0.14238073 0.07553123 0.09611328
000280 65 66 7c 3d bc 3e 78 3d 43 50 da 3d 5a 83 bd 3d
       0.06162109 0.060606703 0.1065984 0.09253569
000290 b7 10 db 3d b1 da d2 bd 7a 08 c6 bd 92 fc a0 bd
       0.106965475 -0.10295618 -0.096695855 -0.07860674
0002a0 5d 06 cc 3d 27 f0 8b 3d 66 50 d1 bd 5f 99 94 bd
       0.09962151 0.06832915 -0.10220413 -0.07255816
0002b0 ef a8 42 3d 08 b2 b1 3d d6 55 0c 3d 11 2b 8d b6
       0.04752439 0.08676535 0.034261547 -4.207141e-06
0002c0 26 08 bb bd 54 d7 81 bd 0e 76 e3 3d f7 08 c0 bd
       -0.091324136 -0.06339899 0.111065015 -0.0937671
0002d0 88 71 a2 3d 78 ea 9b bd 63 76 d2 bd be 5b f4 3d
       0.079318106 -0.07613081 -0.10276487 0.11931561
0002e0 7d 13 82 3d 73 2d b5 3d e6 e6 df bd 44 9b 8b bd
       0.06351373 0.088465594 -0.10932712 -0.06816724
0002f0 b9 ad b8 bd f6 99 e7 3d 8f c6 a6 bd 48 9d c0 3d
       -0.0901751 0.113086626 -0.08143341 0.09404999
000300 cd 33 f2 3d af 20 f0 bd 28 6d 97 bd ee 3a 8f 3d
       0.118262865 -0.11724984 -0.07393867 0.06993662
000310 40 cc 99 3d a7 65 a2 bd 5c 96 88 3d cd 60 b5 bd
       0.07509661 -0.07929545 0.06669304 -0.08856354
000320 d8 c8 00 be 17 6b b4 bd b5 a5 94 3d 6a 28 c8 bd
       -0.12576616 -0.08809488 0.072581686 -0.09773333
000330 a7 bf 8c 3d 16 85 be 3d 2e c6 9a bd c5 c4 0f be
       0.06872492 0.09302728 -0.07557331 -0.14039905
000340 45 e5 91 3d 5c 40 c7 3d 6d d6 8f 3d 94 ec 83 3d
       0.07123808 0.097290725 0.0702332 0.06441608
000350 ac 59 f1 3d 25 1f bf 3d 7c 05 d7 3d 43 f0 ca bd
       0.11784682 0.09332112 0.10499093 -0.099091075
000360 67 53 c9 bd 64 66 b2 bd a5 c6 06 3e 76 1f 98 3d
       -0.09830361 -0.08710936 0.13161714 0.07427876
000370 bc da ca bd d4 6c b2 bd fd 54 54 3d d5 e1 a4 3d
       -0.099050015 -0.087121636 0.051838864 0.080508865
000380 fb 9c 0c 3d f0 53 ff 35 54 ae ca bd ca b8 9d bd
       0.034329396 1.902341e-06 -0.09896532 -0.07701261
000390 68 f1 dd 3d 0c e3 e7 bd d5 40 ac 3d ce 7f a7 bd
       0.1083706 -0.11322603 0.08410803 -0.08178674
0003a0 63 72 ca bd 14 ae e8 3d fe 3d 8b 3d 3a ab dd 3d
       -0.09885099 0.11361328 0.067989334 0.108236745
0003b0 ec 62 f2 bd 35 72 a5 bd 38 be 8b bd c6 b0 16 3e
       -0.11835274 -0.08078424 -0.06823391 0.14715871
0003c0 4d 5b bd bd 0b 75 c4 3d 26 28 0d 3e e0 0b cb bd
       -0.0924593 0.09592637 0.13784847 -0.09914374
0003d0 f8 75 d4 bd 55 49 aa 3d 36 03 9f 3d 6c f3 d0 bd
       -0.10374063 0.08314768 0.07764284 -0.10202679
0003e0 c5 ed 8d 3d ac 1b eb bd 80 73 f6 bd df 79 ad bd
       0.069301166 -0.11479887 -0.120337486 -0.08470511
0003f0 94 ae 68 3d ce 0d 94 bd 00 bd 62 3d c7 9a 9c 3d
       0.056807116 -0.072291955 0.055356026 0.07646709

encoder_map.ffnn.3.bias f4 [50]
000000 c3 0c 3d be b6 0b 2c be ce 28 18 be 78 7d 1f 3e
       -0.184619 -0.16801342 -0.14859316 0.15575206
000010 86 2c 19 3e ed f3 26 3e a8 d4 02 3e f7 6a 1e 3e
       0.1495839 0.16303988 0.12776434 0.15470491
000020 23 8e 42 3e eb ef 37 be 45 b0 98 3d 9e 75 3e 3e
       0.18999533 -0.17962615 0.07455496 0.18599555
000030 8a d5 12 3e ee e5 22 be d6 80 39 be a4 da 2d be
       0.14339271 -0.15908024 -0.18115553 -0.16977936
000040 14 b6 27 3e d7 e7 2b be 95 0e 0f be 1d e7 38 be
       0.16378051 -0.16787659 -0.13970406 -0.18056913
000050 95 e4 04 be 2f 8e 26 3e 2d ac 23 3e 79 be 3a 3e
       -0.12977822 0.16265176 0.15983649 0.18236722
000060 cd 3a 2e be 08 fe 32 be 9a c6 2b be 09 8c 3b be
       -0.17014618 -0.17479718 -0.16774979 -0.18315138
000070 c8 e3 2e be 6a a4 37 be e6 58 31 be a4 2a 0d 3e
       -0.17079079 -0.17933813 -0.17319068 0.13785797
000080 91 c7 41 3e 54 57 17 be fd 75 27 be b3 f9 34 3e
       0.18923785 -0.14779407 -0.16353603 0.17673378
000090 d4 2e ee bd 07 bc 1d 3e 48 03 4f be 73 b1 3e 3e
       -0.116300255 0.15403758 -0.20216095 0.18622379
0000a0 64 cc 0d 3e f8 6a 26 be be 86 2d be 3d 4e 26 be
       0.138475 -0.16251743 -0.16945931 -0.16240783
0000b0 5b ce da bd f3 75 30 3e 6f 9e 1d be 29 a7 41 be
       -0.106838904 0.17232494 -0.15392469 -0.18911423
0000c0 43 f5 2b be 88 c5 27 be
       -0.16792779 -0.16383946

encoder_map.ffnn.6.weight f4 [10, 50]
000000 b9 42 ac bd 7b 42 ad be 18 02 0a 3e d2 28 33 3d
       -0.08411164 -0.33839783 0.13477361 0.0437401
000010 50 e5 2e bd 49 87 55 be 12 36 19 be 8f 84 08 bd
       -0.04269916 -0.20852388 -0.14962032 -0.033329543
000020 7b b6 bf 3d e2 07 15 be 27 38 4b 3e 23 13 cb 3d
       0.09360977 -0.14553788 0.19845639 0.099157594
000030 e1 8a 45 3d 0d 27 f9 3d e7 1f e4 bd 43 66 9b be
       0.04822815 0.121656515 -0.111388974 -0.30351457
000040 41 f8 94 3d d8 8d e1 3d d2 ce ec 3d 05 44 ae be
       0.07273913 0.11013383 0.11562885 -0.3403627
000050 7c 6a 3b be 0e 86 72 bc 5f 96 9a 3e ce ac d5 3c
       -0.1830234 -0.014802469 0.3019285 0.026083376
000060 ed cf a2 be e5 80 c4 3b 92 01 43 be e4 80 8d be
       -0.3179926 0.0059968107 -0.19043568 -0.27637398
000070 2c 29 5a be 44 0e 13 be e9 b2 10 bd ef 52 a5 3e
       -0.21304768 -0.1436091 -0.035326872 0.32289836
000080 b7 87 56 3e 3c cf 2f 3e 3e 57 96 be 7a 8a 02 3e
       0.20950209 0.17168897 -0.29363436 0.12748137
000090 d2 a4 2b be 1a 35 d8 3b d6 7f 2a be 93 1c 16 3e
       -0.16762093 0.006598127 -0.16650328 0.14659338
0000a0 f0 70 98 bd 8d e2 53 be 6a 4f bf be 5c ff 43 3d
       -0.07443416 -0.20691891 -0.37365276 0.04785095
0000b0 3d c6 73 bd fb a7 8e 3e 7b b8 5f be 39 84 8b bc
       -0.059515227 0.27862534 -0.21847717 -0.017030822
0000c0 73 b3 8c be a3 cc 80 be 77 45 2a be 9b 2b 3c bd
       -0.2748066 -0.25156125 -0.16628061 -0.045940023
0000d0 bf b8 e4 3c af 56 cc 3d b7 e2 b7 3e 85 7a 92 3d
       0.027920125 0.09977471 0.35915157 0.07152275
0000e0 67 20 00 3e 38 0a d8 3e e4 f8 9c 3e 8a 38 ad be
       0.1251236 0.42195296 0.30658638 -0.33832198
0000f0 c5 cf 1c 3e 31 23 9d bd 4c cc 36 3e 72 3c 0a bd
       0.15313633 -0.07672728 0.1785137 -0.03374905
000100 b9 49 ea 3c 5d 06 a6 3d 99 31 ba 3e 58 06 a9 be
       0.028599607 0.081066824 0.36365965 -0.33012652
000110 67 7f 7e bd e1 98 51 be 2a 48 50 3e cb 18 21 3e
       -0.06213322 -0.20468475 0.20340028 0.15732114
000120 85 b6 96 3e f5 90 54 3e 25 12 85 3c 4c b1 23 be
       0.29436126 0.20758422 0.016244004 -0.15985602
000130 67 b7 b0 3d fc 6f 9b 3d d4 88 17 be 99 c9 a2 3d
       0.08628731 0.07589719 -0.1479829 0.07948608
000140 be dc 5a be dd 1e a3 3d ad c6 bb ba 6f 57 03 3e
       -0.21373269 0.07964871 -0.0014326178 0.12826322
000150 2b 93 7d be ea 32 55 3e 69 0b dc bd ed f8 48 3e
       -0.24763171 0.20820203 -0.10744364 0.19626208
000160 7c a6 f7 bd 06 e5 9f 3e 70 c4 37 3e 09 8b 82 3d
       -0.12092301 0.3122942 0.17946029 0.06374175
000170 15 1e b0 bc 32 c8 c3 3c b6 4d 8d bd 04 b1 07 3e
       -0.02149872 0.023899172 -0.06899588 0.1325112
000180 c1 4d 82 be 57 4d a8 be cf 8e 78 3c 7f 58 77 be
       -0.25449947 -0.32871506 0.015170767 -0.24154852
000190 ad 19 2d 3e 47 52 0c bd fa 12 33 3e 4b fc 5b be
       0.16904326 -0.034258153 0.17487708 -0.21482961
0001a0 3c e8 ab be 21 5e 5e be b5 b9 43 be 7a e1 88 be
       -0.33575618 -0.21715595 -0.1911381 -0.26734525
0001b0 bf 16 67 be d3 f1 91 3e 1d 0e 44 39 dd 10 93 bd
       -0.2256727 0.2850481 0.00018697274 -0.07180951
0001c0 75 54 d6 be ad ea c4 3d 55 16 19 3e a0 db 73 3e
       -0.4186131 0.09615073 0.14949925 0.23814249
0001d0 02 83 0f be 18 87 18 3e 3e 6a 8d 3e b0 33 c8 3e
       -0.1401482 0.14895284 0.2762012 0.39101934
0001e0 b4 35 1a 3d f8 6e 54 be 9a 57 05 bd 6e 92 14 be
       0.03764887 -0.20745456 -0.032554246 -0.14508983
0001f0 52 a9 3f 3e 17 f8 9a 3e 46 d3 0b 3e 61 3b 81 3e
       0.18716934 0.30267403 0.13654813 0.25240615
000200 7c b6 2a 3e e6 42 4f 3e 1a 8d 82 bc 1b 93 00 be
       0.16671175 0.20240363 -0.015936423 -0.12556116
000210 80 52 3f bb 61 e4 3f 3e 86 95 58 3e 4e a8 a3 be
       -0.002919346 0.18739463 0.21150789 -0.31964344
000220 44 ad c2 3d a7 94 5a bd 09 c5 ab 3e 1e fd a2 be
       0.09505704 -0.053364422 0.33548763 -0.31833738
000230 8f c0 a4 be 91 73 da 3e f5 ac 9e 3e d4 b1 a2 3b
       -0.3217816 0.42666295 0.3099133 0.0049650464
000240 fd 7b e1 3d d7 d6 8f be f8 5d 36 3c 28 28 3c 3e
       0.11009977 -0.28093597 0.011130802 0.18374693
000250 4c 8c 85 3e b4 db 05 3d 00 7e b3 be aa e9 2e 3c
       0.260836 0.03268023 -0.35057068 0.010675827
000260 90 3e 8b be 08 c2 0b 3e 2f 80 05 be 19 54 87 3e
       -0.2719617 0.13648236 -0.1303718 0.2643135
000270 0c d4 21 3e ef 9b d9 bb 5b 52 73 3c e2 56 e4 3d
       0.15803546 -0.006640903 0.014851178 0.11149384
000280 5c 01 59 bd 94 cc 77 3e 3b b1 95 3d 58 e3 26 be
       -0.052979812 0.24199134 0.07309195 -0.16297662
000290 71 ec 9a be 48 8f fa bd cb cd e8 bd 1f 0c 3b 3c
       -0.30258515 -0.1223436 -0.11367377 0.011416464
0002a0 bc 57 73 be 9a e5 fd 3d ec 82 ce 3d ec 7e 83 bd
       -0.23763937 0.12397309 0.10083565 -0.06420693
0002b0 9d a4 15 be 5f d1 3b 3e 26 19 ba bd 74 9a f6 bd
       -0.14613576 0.18341587 -0.09086828 -0.12041178
0002c0 ad e0 d8 be 09 2d 71 3d 74 04 e0 bd 88 1a 01 be
       -0.42358914 0.05888084 -0.10938349 -0.12607777
0002d0 48 5a 7e be e4 9d fa bd eb 86 b5 3e c9 5c 37 3e
       -0.24839127 -0.122371465 0.35454497 0.17906488
0002e0 85 66 a4 3d 5c dc 98 3d ee 25 15 3e 79 4a 62 3d
       0.080273665 0.07463905 0.1456525 0.055246804
0002f0 ca 1a bb be 4d e5 37 3e 60 f1 94 bd 47 6e 76 be
       -0.36543876 0.17958565 -0.07272601 -0.24065505
000300 8d 4d 46 3e 15 de 02 be 6d da 52 bd dc 4b a2 3d
       0.19365521 -0.1278003 -0.05147784 0.07924625
000310 62 6a 56 be e1 11 d0 bd 1a 46 2d 3e 93 b8 c5 3d
       -0.2093902 -0.1015966 0.16921273 0.09654345
000320 ed 64 28 be bc ef a9 bd 45 ee 6c 3e 8b 78 a5 bb
       -0.1644475 -0.08297679 0.23137768 -0.00504977
000330 1e 10 a0 3e ca c0 61 3e f1 d5 61 bb 5d 95 ae 3d
       0.31262296 0.220462 -0.0034459794 0.085245825
000340 40 b4 5d 3e fa a1 6b be 6d 24 f5 bd 2c d0 31 3e
       0.21650791 -0.23011008 -0.11969838 0.17364568
000350 bc 3a 8a 3e cd 5c fc bd 78 56 46 bc df 52 8b be
       0.26997936 -0.12322388 -0.012105577 -0.27211663
000360 61 2d a2 3d 32 3e 9e be 8c c3 02 be f0 79 bd be
       0.079188116 -0.30906826 -0.12769908 -0.37007093
000370 0e 86 84 be 27 f0 d4 3d 64 06 40 3e f2 3e 85 3e
       -0.25883526 0.10397368 0.18752438 0.26024586
000380 0f 73 d7 bd 6e 8a 94 3c 93 f6 8c bd 6c 72 a0 be
       -0.105199926 0.018132415 -0.06882968 -0.31337297
000390 95 4d 8d be 9b 7f 94 be c8 7b 9c be ea 35 1d bd
       -0.27598253 -0.29003605 -0.30563188 -0.038381495
0003a0 93 6c 88 3e 77 89 49 be f5 ab 00 3e ea dc 20 3e
       0.26645336 -0.19681345 0.12565596 0.15709272
0003b0 f6 0f e4 bd 4c 25 a4 bd 7f e4 a5 bd 62 78 8a 3e
       -0.11135857 -0.08014926 -0.08100223 0.2704497
0003c0 9d 5a be 3e 1b ee 16 be 08 e4 c3 be 10 d9 71 be
       0.37178507 -0.14739268 -0.38259912 -0.23617959
0003d0 32 1e 18 bd 7d c2 a6 3d c6 f3 54 3e ad bd 6c be
       -0.03713817 0.081425644 0.20796117 -0.2311923
0003e0 5f 43 80 3d 9c 3c 1a 3d 25 02 9d 3d 13 33 84 bd
       0.0626285 0.037655458 0.07666425 -0.06455054
0003f0 d9 d5 b5 be 68 03 98 3e d9 ed 7d 3d 75 77 57 bd
       -0.35514715 0.296901 0.061994407 -0.052604157

encoder_map.ffnn.6.bias f4 [10]
000000 b8 1d 5f 3d 5c bf ee 3c 55 84 61 be 4a 3c 78 3d
       0.0544717 0.029143982 -0.22023137 0.06060437
000010 87 3b 40 3d da 50 00 3d 7a 79 ac bc 7a 86 59 3d
       0.04693177 0.031327106 -0.021054018 0.053106762
000020 9c cd ae bd 24 18 a8 be
       -0.085353106 -0.32830918

readout_map.ffnn.0.weight f4 [50, 10]
000000 a6 c8 e1 bb b5 27 30 bb 07 88 64 bb d4 11 fc bb
       -0.0068903742 -0.0026879136 -0.0034871118 -0.007692555
000010 36 92 a1 b9 49 40 ac 3b 95 0e f9 3a de ad ad 39
       -0.0003081725 0.005256687 0.0019001538 0.00033126672
000020 fc 50 1d 3b 7a 6b 07 bc ce 19 26 3a eb 57 86 39
       0.002400457 -0.0082653705 0.00063362427 0.00025623976
000030 05 1a a9 bb e8 ca 5f 3b f2 cb b8 3a 1a a9 ba bb
       -0.0051605725 0.003414804 0.0014098866 -0.005696428
000040 af 50 3d bb f9 b6 48 bb 83 16 b2 3b 80 32 bf bb
       -0.0028887202 -0.0030626638 0.0054348125 -0.0058348775
000050 c3 81 d8 bc a3 a3 94 3c 14 2b 6d bb 4b 5b 7f 3b
       -0.026429063 0.018144434 -0.0036189007 0.0038964327
000060 12 c4 cf bc dd e6 07 bc 4c 8d d0 3c 37 49 55 3c
       -0.025362048 -0.008294788 0.025458 0.013017944
000070 36 ce 46 b9 42 ea 2f 3b 89 6e 42 3c 2e 84 1b bc
       -0.00018959571 0.002684251 0.011867174 -0.009491963
000080 52 ce ce 3b af 63 3b 3c 1f 24 66 bc 49 5c 6d 3c
       0.0063112164 0.011437341 -0.014046698 0.0144873345
000090 a5 71 42 bc 66 dc 22 3a 26 94 2a b9 42 1b 89 ba
       -0.011867915 0.00062126515 -0.00016267653 -0.0010460394
0000a0 f9 b9 9b 3b a4 b2 5f 3b f2 cf ae b9 f4 b2 87 ba
       0.0047523943 0.0034133578 -0.00033342798 -0.0010353015
0000b0 91 4a 84 ba d2 c3 f5 ba 10 ad bc ba 34 6a c5 bb
       -0.0010093023 -0.0018750376 -0.0014394838 -0.0060246233
0000c0 ee 2c 1b 3b 75 c8 e6 bb 23 24 91 3b ee 36 a0 bb
       0.0023677903 -0.0070429393 0.0044293567 -0.0048893606
0000d0 22 b8 08 bc a6 bd 40 39 70 08 54 3a b5 dd 29 bb
       -0.008344682 0.00018381196 0.00080884155 -0.0025919501
0000e0 8e af 82 3a 42 f1 5d bb d3 26 21 bb db bc 31 bc
       0.0009970532 -0.0033865725 -0.0024589791 -0.010848249
0000f0 60 55 8a bb ae 35 af b9 d9 83 81 bb 2d d2 86 bb
       -0.0042216033 -0.00033418596 -0.003952485 -0.0041144104
000100 fa 07 14 3b 08 06 70 3b 88 03 26 bb ba 4f 97 3b
       0.0022587762 0.0036624689 -0.0025331695 0.0046176584
000110 11 8a b1 3b a4 f0 03 3b 82 a2 05 bc 2b 4b 01 bc
       0.00541807 0.0020132447 -0.008156421 -0.007891457
000120 a7 17 59 bb d3 3e 0c 3c 45 af 22 bb 42 6f 20 3b
       -0.003312567 0.0085599 -0.0024823707 0.0024480377
000130 d0 f3 e4 3a 75 ef ce 3b 6b 1c a8 3b cb 18 92 bb
       0.0017467681 0.0063151666 0.005130341 -0.004458522
000140 1e 13 c8 3a 68 39 fc 38 f6 d9 01 ba f1 c6 1c bc
       0.0015264486 0.00012026989 -0.0004953438 -0.009568916
000150 1f 65 57 36 94 e3 b2 39 46 77 b4 ba ae ea 08 3b
       3.2096357e-06 0.00034120365 -0.0013768456 0.0020891833
000160 4f 87 cd 3b dd c0 4e bc fd d8 bd 3d 7c 75 b6 3d
       0.0062722336 -0.012619224 0.09269903 0.08909127
000170 29 5c 8c 3c e6 c3 8c bd 97 b0 7b bd c0 f4 27 3d
       0.01713379 -0.06873302 -0.061447706 0.041004896
000180 26 16 c8 bd 69 f9 3b 3b 42 97 68 bc a9 34 28 3a
       -0.097698495 0.0028682596 -0.014196219 0.00064165384
000190 60 70 67 bd 31 a3 c6 3b b3 11 ca 3a 21 a7 4f bd
       -0.056503654 0.0060619344 0.0015416652 -0.050696496
0001a0 0d ae 11 3c 4e 0b 35 bb cc 55 ea 3d 36 c4 2e bd
       0.008891595 -0.0027625146 0.11442146 -0.04266759
0001b0 42 09 57 3b e2 9d 13 3c a8 ac 10 3b 30 aa 6e b8
       0.0032811915 0.00900981 0.0022075567 -5.690212e-05
0001c0 61 ed 50 3b fa e5 e7 39 cd e5 91 3b 4a 10 76 3a
       0.003187977 0.000442311 0.004452443 0.00093865825
0001d0 43 a4 94 bb 11 be 4d bb 70 76 22 3b 6e 77 78 39
       -0.004536183 -0.0031393806 0.0024789833 0.00023695614
0001e0 51 66 9f 3a 1e 64 73 ba 09 4e a7 bb dc 32 07 bb
       0.001216123 -0.0009284633 -0.005105738 -0.002062968
0001f0 6c 39 48 3b ed cb 2a bb 4a fc 6d ba c1 67 3e 3b
       0.0030551804 -0.002606149 -0.00090784265 0.0029053541
000200 2c 2f 6d bb 86 53 cc b9 4d e4 8a 3b f4 b6 ab 3b
       -0.0036191447 -0.00038972142 0.0042386414 0.0052403156
000210 df 29 d1 3a d4 33 d5 ba 7e 79 d9 bb a3 b3 96 3b
       0.0015957913 -0.0016266056 -0.0066367975 0.004599051
000220 6d 80 a5 3b cd c4 01 bc 89 12 0b 3c bf a3 50 bb
       0.00505071 -0.007920456 0.008488306 -0.0031835882
000230 1e 62 71 ba 67 f8 a4 bb 8b ab 1e bc 11 95 5c bb
       -0.0009208041 -0.0050344947 -0.009684454 -0.0033658186
000240 07 f3 64 bb bc ed fe 3b bf 01 89 bb 3c e9 0e 3c
       -0.0034934895 0.007779805 -0.0041811164 0.0087226
000250 f3 eb 1c 3a 48 ce 50 bb fd 90 90 3d cd d3 00 3d
       0.0005986087 -0.0031861234 0.07058904 0.03145199
000260 44 25 a9 bb 37 59 e2 3c 94 84 28 3d 1c 72 35 bd
       -0.005161913 0.027630432 0.04114206 -0.044298276
000270 de 16 34 bd 41 b1 7b bd 2f d7 56 ba 85 5b 26 3c
       -0.04396712 -0.06144834 -0.0008195517 0.010153656
000280 2a 06 97 3b e6 48 3b ba 43 1b 5a 3c f2 6c 1f ba
       0.004608889 -0.00071443466 0.013312164 -0.0006081603
000290 f5 29 30 3b 2d 7b 15 3c 4d 00 7c bb 97 3b 94 bb
       0.0026880477 0.009123606 -0.0038452328 -0.004523705
0002a0 d7 0e d6 ba ca 5d 3b 3c 00 d0 f5 ba f9 b0 12 3c
       -0.0016331327 0.011435935 -0.0018754005 0.008953326
0002b0 a2 87 c1 bb 22 46 97 3b 0d 1c a3 bb b7 5e 86 bb
       -0.0059060613 0.004616515 -0.004977709 -0.0041006464
0002c0 ec 42 26 bb 68 1a ff bb 6e 4d de 3b 49 ce c5 bb
       -0.0025369478 -0.0077851303 0.0067841327 -0.006036554
0002d0 49 9a 8e bc 01 ff b6 bc c9 e2 b4 ba d9 fc fe 3b
       -0.017407553 -0.022338392 -0.0013800497 0.0077816066
0002e0 7e 77 46 3c d5 3b f3 38 b8 5d 41 3c e2 f1 c0 b9
       0.01211345 0.000115982875 0.011802129 -0.0003680131
0002f0 3c 4b 1c 3c 15 6e 4f bb 92 e6 e4 3b f3 d9 d1 bb
       0.009539422 -0.0031651307 0.006985494 -0.0064041554
000300 70 a9 9c 3b a0 97 2f 3c 0d 24 17 3b f2 ca 68 bb
       0.0047809407 0.010717303 0.002306226 -0.0035521355
000310 29 53 f7 bb 1e 96 4a bb 54 f6 bb 3b 54 a8 de bb
       -0.0075477553 -0.003091223 0.0057361517 -0.0067949686
000320 72 30 5b 3b 9c e8 ae 3a bd 0b 6e 3b 3e c6 00 3b
       0.0033445624 0.001334447 0.0036322915 0.0019649412
000330 81 ce ba 3b b1 e7 e9 bb 72 b9 93 bb 03 19 b9 3b
       0.0057008867 -0.0071382155 -0.004508191 0.0056487336
000340 b9 76 90 3a 58 be af 3a 87 5d f7 3c 6c 2c ce 3c
       0.001102171 0.0013408167 0.030195965 0.025167666
000350 8b 17 d2 bb 28 0b e3 bc ec f6 c3 bc f1 dd 4b bc
       -0.006411498 -0.02771528 -0.023921452 -0.012443052
000360 84 1b d3 3c 5f 82 aa bc 0d 9b aa 3a fe 07 b7 3a
       0.025769956 -0.020814119 0.001301618 0.0013964174
000370 b9 c5 4e bb ad 28 9d 3b 56 f7 02 3b c0 21 f0 3a
       -0.0031550957 0.0047961087 0.001998385 0.0018320605
000380 a2 9f de 3b 31 f3 8c 3a eb 1f 8b bb 82 33 a1 bb
       0.006793932 0.0010753629 -0.0042457483 -0.0049194703
000390 37 df b8 bb 29 f9 ca 3b a6 c5 3d bb 8a f5 ca ba
       -0.0056418437 0.006194253 -0.002895692 -0.0015484553
0003a0 36 56 65 ba c3 d6 60 b9 eb 1a 3a 3b 4b 92 05 ba
       -0.0008748503 -0.0002144231 0.0028397392 -0.0005095347
0003b0 fa dd 38 bb f5 75 f2 3a 2a 24 7c bb cc c3 bd b9
       -0.002820848 0.0018498289 -0.0038473704 -0.0003619477
0003c0 2a 9b 7c bc af 27 b1 3c db b9 3a bd 8e 28 ec 3c
       -0.015417853 0.021625368 -0.0455874 0.028827932
0003d0 80 c7 72 3d 6b 2c 42 3d 53 a6 0d be 08 fd 46 bc
       0.05927229 0.04740564 -0.13832979 -0.012145288
0003e0 86 b6 6b bd 4a 41 fd bc 97 1e 06 3b cc d9 21 3b
       -0.057547115 -0.030914921 0.002046501 0.0024696467
0003f0 73 18 66 3b 5d cf 72 3a 0a aa 78 3a 8f 1b 95 bb
       0.0035109788 0.0009262467 0.0009485787 -0.0045504044
